name: "ResNet-101"

input: "data"
input_shape {
    dim: 1
    dim: 3
    dim: 410
    dim: 800
}

input: "im_info"
input_shape {
    dim: 1
    dim: 3
}

layer {
  name: "conv1"
  type: "ConvolutionData"
  bottom: "data"
  top: "conv1"
  param {
    lr_mult: 1
    decay_mult: 1
  }
  convolution_param {
    num_output: 64
    bias_term: false
    pad: 3
    kernel_size: 7
    stride: 2
    weight_filler {
      type: "msra"
    }
  }
}
layer {
  name: "conv1_bn"
  type: "BNData"
  bottom: "conv1"
  top: "conv1"
  param {
    lr_mult: 1
    decay_mult: 0
  }
  param {
    lr_mult: 1
    decay_mult: 0
  }
  param {
    lr_mult: 0
    decay_mult: 0
  }
  param {
    lr_mult: 0
    decay_mult: 0
  }
  bn_param {
    scale_filler {
      type: "constant"
      value: 1
    }
    shift_filler {
      type: "constant"
      value: 0
    }
    decay: 0.05
    multigpu_sync: ALL
  }
}
layer {
  name: "conv1_relu"
  type: "ReLU"
  bottom: "conv1"
  top: "conv1"
}
layer {
  name: "pool1"
  type: "Pooling"
  bottom: "conv1"
  top: "pool1"
  pooling_param {
    pool: MAX
    kernel_size: 3
    stride: 2
  }
}
layer {
  name: "res2a_branch1"
  type: "ConvolutionData"
  bottom: "pool1"
  top: "res2a_branch1"
  param {
    lr_mult: 1
    decay_mult: 1
  }
  convolution_param {
    num_output: 256
    bias_term: false
    pad: 0
    kernel_size: 1
    stride: 1
    weight_filler {
      type: "msra"
    }
  }
}
layer {
  name: "res2a_branch1_bn"
  type: "BNData"
  bottom: "res2a_branch1"
  top: "res2a_branch1"
  param {
    lr_mult: 1
    decay_mult: 0
  }
  param {
    lr_mult: 1
    decay_mult: 0
  }
  param {
    lr_mult: 0
    decay_mult: 0
  }
  param {
    lr_mult: 0
    decay_mult: 0
  }
  bn_param {
    scale_filler {
      type: "constant"
      value: 1
    }
    shift_filler {
      type: "constant"
      value: 0
    }
    decay: 0.05
    multigpu_sync: ALL
  }
}
layer {
  name: "res2a_branch2a"
  type: "ConvolutionData"
  bottom: "pool1"
  top: "res2a_branch2a"
  param {
    lr_mult: 1
    decay_mult: 1
  }
  convolution_param {
    num_output: 64
    bias_term: false
    pad: 0
    kernel_size: 1
    stride: 1
    weight_filler {
      type: "msra"
    }
  }
}
layer {
  name: "res2a_branch2a_bn"
  type: "BNData"
  bottom: "res2a_branch2a"
  top: "res2a_branch2a"
  param {
    lr_mult: 1
    decay_mult: 0
  }
  param {
    lr_mult: 1
    decay_mult: 0
  }
  param {
    lr_mult: 0
    decay_mult: 0
  }
  param {
    lr_mult: 0
    decay_mult: 0
  }
  bn_param {
    scale_filler {
      type: "constant"
      value: 1
    }
    shift_filler {
      type: "constant"
      value: 0
    }
    decay: 0.05
    multigpu_sync: ALL
  }
}
layer {
  name: "res2a_branch2a_relu"
  type: "ReLU"
  bottom: "res2a_branch2a"
  top: "res2a_branch2a"
}
layer {
  name: "res2a_branch2b"
  type: "ConvolutionData"
  bottom: "res2a_branch2a"
  top: "res2a_branch2b"
  param {
    lr_mult: 1
    decay_mult: 1
  }
  convolution_param {
    num_output: 64
    bias_term: false
    pad: 1
    kernel_size: 3
    stride: 1
    weight_filler {
      type: "msra"
    }
  }
}
layer {
  name: "res2a_branch2b_bn"
  type: "BNData"
  bottom: "res2a_branch2b"
  top: "res2a_branch2b"
  param {
    lr_mult: 1
    decay_mult: 0
  }
  param {
    lr_mult: 1
    decay_mult: 0
  }
  param {
    lr_mult: 0
    decay_mult: 0
  }
  param {
    lr_mult: 0
    decay_mult: 0
  }
  bn_param {
    scale_filler {
      type: "constant"
      value: 1
    }
    shift_filler {
      type: "constant"
      value: 0
    }
    decay: 0.05
    multigpu_sync: ALL
  }
}
layer {
  name: "res2a_branch2b_relu"
  type: "ReLU"
  bottom: "res2a_branch2b"
  top: "res2a_branch2b"
}
layer {
  name: "res2a_branch2c"
  type: "ConvolutionData"
  bottom: "res2a_branch2b"
  top: "res2a_branch2c"
  param {
    lr_mult: 1
    decay_mult: 1
  }
  convolution_param {
    num_output: 256
    bias_term: false
    pad: 0
    kernel_size: 1
    stride: 1
    weight_filler {
      type: "msra"
    }
  }
}
layer {
  name: "res2a_branch2c_bn"
  type: "BNData"
  bottom: "res2a_branch2c"
  top: "res2a_branch2c"
  param {
    lr_mult: 1
    decay_mult: 0
  }
  param {
    lr_mult: 1
    decay_mult: 0
  }
  param {
    lr_mult: 0
    decay_mult: 0
  }
  param {
    lr_mult: 0
    decay_mult: 0
  }
  bn_param {
    scale_filler {
      type: "constant"
      value: 0.1
    }
    shift_filler {
      type: "constant"
      value: 0
    }
    decay: 0.05
    multigpu_sync: ALL
  }
}
layer {
  name: "res2a"
  type: "Eltwise"
  bottom: "res2a_branch1"
  bottom: "res2a_branch2c"
  top: "res2a"
}
layer {
  name: "res2a_relu"
  type: "ReLU"
  bottom: "res2a"
  top: "res2a"
}
layer {
  name: "res2b_branch2a"
  type: "ConvolutionData"
  bottom: "res2a"
  top: "res2b_branch2a"
  param {
    lr_mult: 1
    decay_mult: 1
  }
  convolution_param {
    num_output: 64
    bias_term: false
    pad: 0
    kernel_size: 1
    stride: 1
    weight_filler {
      type: "msra"
    }
  }
}
layer {
  name: "res2b_branch2a_bn"
  type: "BNData"
  bottom: "res2b_branch2a"
  top: "res2b_branch2a"
  param {
    lr_mult: 1
    decay_mult: 0
  }
  param {
    lr_mult: 1
    decay_mult: 0
  }
  param {
    lr_mult: 0
    decay_mult: 0
  }
  param {
    lr_mult: 0
    decay_mult: 0
  }
  bn_param {
    scale_filler {
      type: "constant"
      value: 1
    }
    shift_filler {
      type: "constant"
      value: 0
    }
    decay: 0.05
    multigpu_sync: ALL
  }
}
layer {
  name: "res2b_branch2a_relu"
  type: "ReLU"
  bottom: "res2b_branch2a"
  top: "res2b_branch2a"
}
layer {
  name: "res2b_branch2b"
  type: "ConvolutionData"
  bottom: "res2b_branch2a"
  top: "res2b_branch2b"
  param {
    lr_mult: 1
    decay_mult: 1
  }
  convolution_param {
    num_output: 64
    bias_term: false
    pad: 1
    kernel_size: 3
    stride: 1
    weight_filler {
      type: "msra"
    }
  }
}
layer {
  name: "res2b_branch2b_bn"
  type: "BNData"
  bottom: "res2b_branch2b"
  top: "res2b_branch2b"
  param {
    lr_mult: 1
    decay_mult: 0
  }
  param {
    lr_mult: 1
    decay_mult: 0
  }
  param {
    lr_mult: 0
    decay_mult: 0
  }
  param {
    lr_mult: 0
    decay_mult: 0
  }
  bn_param {
    scale_filler {
      type: "constant"
      value: 1
    }
    shift_filler {
      type: "constant"
      value: 0
    }
    decay: 0.05
    multigpu_sync: ALL
  }
}
layer {
  name: "res2b_branch2b_relu"
  type: "ReLU"
  bottom: "res2b_branch2b"
  top: "res2b_branch2b"
}
layer {
  name: "res2b_branch2c"
  type: "ConvolutionData"
  bottom: "res2b_branch2b"
  top: "res2b_branch2c"
  param {
    lr_mult: 1
    decay_mult: 1
  }
  convolution_param {
    num_output: 256
    bias_term: false
    pad: 0
    kernel_size: 1
    stride: 1
    weight_filler {
      type: "msra"
    }
  }
}
layer {
  name: "res2b_branch2c_bn"
  type: "BNData"
  bottom: "res2b_branch2c"
  top: "res2b_branch2c"
  param {
    lr_mult: 1
    decay_mult: 0
  }
  param {
    lr_mult: 1
    decay_mult: 0
  }
  param {
    lr_mult: 0
    decay_mult: 0
  }
  param {
    lr_mult: 0
    decay_mult: 0
  }
  bn_param {
    scale_filler {
      type: "constant"
      value: 0.1
    }
    shift_filler {
      type: "constant"
      value: 0
    }
    decay: 0.05
    multigpu_sync: ALL
  }
}
layer {
  name: "res2b"
  type: "Eltwise"
  bottom: "res2a"
  bottom: "res2b_branch2c"
  top: "res2b"
}
layer {
  name: "res2b_relu"
  type: "ReLU"
  bottom: "res2b"
  top: "res2b"
}
layer {
  name: "res2c_branch2a"
  type: "ConvolutionData"
  bottom: "res2b"
  top: "res2c_branch2a"
  param {
    lr_mult: 1
    decay_mult: 1
  }
  convolution_param {
    num_output: 64
    bias_term: false
    pad: 0
    kernel_size: 1
    stride: 1
    weight_filler {
      type: "msra"
    }
  }
}
layer {
  name: "res2c_branch2a_bn"
  type: "BNData"
  bottom: "res2c_branch2a"
  top: "res2c_branch2a"
  param {
    lr_mult: 1
    decay_mult: 0
  }
  param {
    lr_mult: 1
    decay_mult: 0
  }
  param {
    lr_mult: 0
    decay_mult: 0
  }
  param {
    lr_mult: 0
    decay_mult: 0
  }
  bn_param {
    scale_filler {
      type: "constant"
      value: 1
    }
    shift_filler {
      type: "constant"
      value: 0
    }
    decay: 0.05
    multigpu_sync: ALL
  }
}
layer {
  name: "res2c_branch2a_relu"
  type: "ReLU"
  bottom: "res2c_branch2a"
  top: "res2c_branch2a"
}
layer {
  name: "res2c_branch2b"
  type: "ConvolutionData"
  bottom: "res2c_branch2a"
  top: "res2c_branch2b"
  param {
    lr_mult: 1
    decay_mult: 1
  }
  convolution_param {
    num_output: 64
    bias_term: false
    pad: 1
    kernel_size: 3
    stride: 1
    weight_filler {
      type: "msra"
    }
  }
}
layer {
  name: "res2c_branch2b_bn"
  type: "BNData"
  bottom: "res2c_branch2b"
  top: "res2c_branch2b"
  param {
    lr_mult: 1
    decay_mult: 0
  }
  param {
    lr_mult: 1
    decay_mult: 0
  }
  param {
    lr_mult: 0
    decay_mult: 0
  }
  param {
    lr_mult: 0
    decay_mult: 0
  }
  bn_param {
    scale_filler {
      type: "constant"
      value: 1
    }
    shift_filler {
      type: "constant"
      value: 0
    }
    decay: 0.05
    multigpu_sync: ALL
  }
}
layer {
  name: "res2c_branch2b_relu"
  type: "ReLU"
  bottom: "res2c_branch2b"
  top: "res2c_branch2b"
}
layer {
  name: "res2c_branch2c"
  type: "ConvolutionData"
  bottom: "res2c_branch2b"
  top: "res2c_branch2c"
  param {
    lr_mult: 1
    decay_mult: 1
  }
  convolution_param {
    num_output: 256
    bias_term: false
    pad: 0
    kernel_size: 1
    stride: 1
    weight_filler {
      type: "msra"
    }
  }
}
layer {
  name: "res2c_branch2c_bn"
  type: "BNData"
  bottom: "res2c_branch2c"
  top: "res2c_branch2c"
  param {
    lr_mult: 1
    decay_mult: 0
  }
  param {
    lr_mult: 1
    decay_mult: 0
  }
  param {
    lr_mult: 0
    decay_mult: 0
  }
  param {
    lr_mult: 0
    decay_mult: 0
  }
  bn_param {
    scale_filler {
      type: "constant"
      value: 0.1
    }
    shift_filler {
      type: "constant"
      value: 0
    }
    decay: 0.05
    multigpu_sync: ALL
  }
}
layer {
  name: "res2c"
  type: "Eltwise"
  bottom: "res2b"
  bottom: "res2c_branch2c"
  top: "res2c"
}
layer {
  name: "res2c_relu"
  type: "ReLU"
  bottom: "res2c"
  top: "res2c"
}
layer {
  name: "res3a_branch1"
  type: "ConvolutionData"
  bottom: "res2c"
  top: "res3a_branch1"
  param {
    lr_mult: 1
    decay_mult: 1
  }
  convolution_param {
    num_output: 512
    bias_term: false
    pad: 0
    kernel_size: 1
    stride: 2
    weight_filler {
      type: "msra"
    }
  }
}
layer {
  name: "res3a_branch1_bn"
  type: "BNData"
  bottom: "res3a_branch1"
  top: "res3a_branch1"
  param {
    lr_mult: 1
    decay_mult: 0
  }
  param {
    lr_mult: 1
    decay_mult: 0
  }
  param {
    lr_mult: 0
    decay_mult: 0
  }
  param {
    lr_mult: 0
    decay_mult: 0
  }
  bn_param {
    scale_filler {
      type: "constant"
      value: 1
    }
    shift_filler {
      type: "constant"
      value: 0
    }
    decay: 0.05
    multigpu_sync: ALL
  }
}
layer {
  name: "res3a_branch2a"
  type: "ConvolutionData"
  bottom: "res2c"
  top: "res3a_branch2a"
  param {
    lr_mult: 1
    decay_mult: 1
  }
  convolution_param {
    num_output: 128
    bias_term: false
    pad: 0
    kernel_size: 1
    stride: 1
    weight_filler {
      type: "msra"
    }
  }
}
layer {
  name: "res3a_branch2a_bn"
  type: "BNData"
  bottom: "res3a_branch2a"
  top: "res3a_branch2a"
  param {
    lr_mult: 1
    decay_mult: 0
  }
  param {
    lr_mult: 1
    decay_mult: 0
  }
  param {
    lr_mult: 0
    decay_mult: 0
  }
  param {
    lr_mult: 0
    decay_mult: 0
  }
  bn_param {
    scale_filler {
      type: "constant"
      value: 1
    }
    shift_filler {
      type: "constant"
      value: 0
    }
    decay: 0.05
    multigpu_sync: ALL
  }
}
layer {
  name: "res3a_branch2a_relu"
  type: "ReLU"
  bottom: "res3a_branch2a"
  top: "res3a_branch2a"
}
layer {
  name: "res3a_branch2b"
  type: "ConvolutionData"
  bottom: "res3a_branch2a"
  top: "res3a_branch2b"
  param {
    lr_mult: 1
    decay_mult: 1
  }
  convolution_param {
    num_output: 128
    bias_term: false
    pad: 1
    kernel_size: 3
    stride: 2
    weight_filler {
      type: "msra"
    }
  }
}
layer {
  name: "res3a_branch2b_bn"
  type: "BNData"
  bottom: "res3a_branch2b"
  top: "res3a_branch2b"
  param {
    lr_mult: 1
    decay_mult: 0
  }
  param {
    lr_mult: 1
    decay_mult: 0
  }
  param {
    lr_mult: 0
    decay_mult: 0
  }
  param {
    lr_mult: 0
    decay_mult: 0
  }
  bn_param {
    scale_filler {
      type: "constant"
      value: 1
    }
    shift_filler {
      type: "constant"
      value: 0
    }
    decay: 0.05
    multigpu_sync: ALL
  }
}
layer {
  name: "res3a_branch2b_relu"
  type: "ReLU"
  bottom: "res3a_branch2b"
  top: "res3a_branch2b"
}
layer {
  name: "res3a_branch2c"
  type: "ConvolutionData"
  bottom: "res3a_branch2b"
  top: "res3a_branch2c"
  param {
    lr_mult: 1
    decay_mult: 1
  }
  convolution_param {
    num_output: 512
    bias_term: false
    pad: 0
    kernel_size: 1
    stride: 1
    weight_filler {
      type: "msra"
    }
  }
}
layer {
  name: "res3a_branch2c_bn"
  type: "BNData"
  bottom: "res3a_branch2c"
  top: "res3a_branch2c"
  param {
    lr_mult: 1
    decay_mult: 0
  }
  param {
    lr_mult: 1
    decay_mult: 0
  }
  param {
    lr_mult: 0
    decay_mult: 0
  }
  param {
    lr_mult: 0
    decay_mult: 0
  }
  bn_param {
    scale_filler {
      type: "constant"
      value: 0.1
    }
    shift_filler {
      type: "constant"
      value: 0
    }
    decay: 0.05
    multigpu_sync: ALL
  }
}
layer {
  name: "res3a"
  type: "Eltwise"
  bottom: "res3a_branch1"
  bottom: "res3a_branch2c"
  top: "res3a"
}
layer {
  name: "res3a_relu"
  type: "ReLU"
  bottom: "res3a"
  top: "res3a"
}
layer {
  name: "res3b1_branch2a"
  type: "ConvolutionData"
  bottom: "res3a"
  top: "res3b1_branch2a"
  param {
    lr_mult: 1
    decay_mult: 1
  }
  convolution_param {
    num_output: 128
    bias_term: false
    pad: 0
    kernel_size: 1
    stride: 1
    weight_filler {
      type: "msra"
    }
  }
}
layer {
  name: "res3b1_branch2a_bn"
  type: "BNData"
  bottom: "res3b1_branch2a"
  top: "res3b1_branch2a"
  param {
    lr_mult: 1
    decay_mult: 0
  }
  param {
    lr_mult: 1
    decay_mult: 0
  }
  param {
    lr_mult: 0
    decay_mult: 0
  }
  param {
    lr_mult: 0
    decay_mult: 0
  }
  bn_param {
    scale_filler {
      type: "constant"
      value: 1
    }
    shift_filler {
      type: "constant"
      value: 0
    }
    decay: 0.05
    multigpu_sync: ALL
  }
}
layer {
  name: "res3b1_branch2a_relu"
  type: "ReLU"
  bottom: "res3b1_branch2a"
  top: "res3b1_branch2a"
}
layer {
  name: "res3b1_branch2b"
  type: "ConvolutionData"
  bottom: "res3b1_branch2a"
  top: "res3b1_branch2b"
  param {
    lr_mult: 1
    decay_mult: 1
  }
  convolution_param {
    num_output: 128
    bias_term: false
    pad: 1
    kernel_size: 3
    stride: 1
    weight_filler {
      type: "msra"
    }
  }
}
layer {
  name: "res3b1_branch2b_bn"
  type: "BNData"
  bottom: "res3b1_branch2b"
  top: "res3b1_branch2b"
  param {
    lr_mult: 1
    decay_mult: 0
  }
  param {
    lr_mult: 1
    decay_mult: 0
  }
  param {
    lr_mult: 0
    decay_mult: 0
  }
  param {
    lr_mult: 0
    decay_mult: 0
  }
  bn_param {
    scale_filler {
      type: "constant"
      value: 1
    }
    shift_filler {
      type: "constant"
      value: 0
    }
    decay: 0.05
    multigpu_sync: ALL
  }
}
layer {
  name: "res3b1_branch2b_relu"
  type: "ReLU"
  bottom: "res3b1_branch2b"
  top: "res3b1_branch2b"
}
layer {
  name: "res3b1_branch2c"
  type: "ConvolutionData"
  bottom: "res3b1_branch2b"
  top: "res3b1_branch2c"
  param {
    lr_mult: 1
    decay_mult: 1
  }
  convolution_param {
    num_output: 512
    bias_term: false
    pad: 0
    kernel_size: 1
    stride: 1
    weight_filler {
      type: "msra"
    }
  }
}
layer {
  name: "res3b1_branch2c_bn"
  type: "BNData"
  bottom: "res3b1_branch2c"
  top: "res3b1_branch2c"
  param {
    lr_mult: 1
    decay_mult: 0
  }
  param {
    lr_mult: 1
    decay_mult: 0
  }
  param {
    lr_mult: 0
    decay_mult: 0
  }
  param {
    lr_mult: 0
    decay_mult: 0
  }
  bn_param {
    scale_filler {
      type: "constant"
      value: 0.1
    }
    shift_filler {
      type: "constant"
      value: 0
    }
    decay: 0.05
    multigpu_sync: ALL
  }
}
layer {
  name: "res3b1"
  type: "Eltwise"
  bottom: "res3a"
  bottom: "res3b1_branch2c"
  top: "res3b1"
}
layer {
  name: "res3b1_relu"
  type: "ReLU"
  bottom: "res3b1"
  top: "res3b1"
}
layer {
  name: "res3b2_branch2a"
  type: "ConvolutionData"
  bottom: "res3b1"
  top: "res3b2_branch2a"
  param {
    lr_mult: 1
    decay_mult: 1
  }
  convolution_param {
    num_output: 128
    bias_term: false
    pad: 0
    kernel_size: 1
    stride: 1
    weight_filler {
      type: "msra"
    }
  }
}
layer {
  name: "res3b2_branch2a_bn"
  type: "BNData"
  bottom: "res3b2_branch2a"
  top: "res3b2_branch2a"
  param {
    lr_mult: 1
    decay_mult: 0
  }
  param {
    lr_mult: 1
    decay_mult: 0
  }
  param {
    lr_mult: 0
    decay_mult: 0
  }
  param {
    lr_mult: 0
    decay_mult: 0
  }
  bn_param {
    scale_filler {
      type: "constant"
      value: 1
    }
    shift_filler {
      type: "constant"
      value: 0
    }
    decay: 0.05
    multigpu_sync: ALL
  }
}
layer {
  name: "res3b2_branch2a_relu"
  type: "ReLU"
  bottom: "res3b2_branch2a"
  top: "res3b2_branch2a"
}
layer {
  name: "res3b2_branch2b"
  type: "ConvolutionData"
  bottom: "res3b2_branch2a"
  top: "res3b2_branch2b"
  param {
    lr_mult: 1
    decay_mult: 1
  }
  convolution_param {
    num_output: 128
    bias_term: false
    pad: 1
    kernel_size: 3
    stride: 1
    weight_filler {
      type: "msra"
    }
  }
}
layer {
  name: "res3b2_branch2b_bn"
  type: "BNData"
  bottom: "res3b2_branch2b"
  top: "res3b2_branch2b"
  param {
    lr_mult: 1
    decay_mult: 0
  }
  param {
    lr_mult: 1
    decay_mult: 0
  }
  param {
    lr_mult: 0
    decay_mult: 0
  }
  param {
    lr_mult: 0
    decay_mult: 0
  }
  bn_param {
    scale_filler {
      type: "constant"
      value: 1
    }
    shift_filler {
      type: "constant"
      value: 0
    }
    decay: 0.05
    multigpu_sync: ALL
  }
}
layer {
  name: "res3b2_branch2b_relu"
  type: "ReLU"
  bottom: "res3b2_branch2b"
  top: "res3b2_branch2b"
}
layer {
  name: "res3b2_branch2c"
  type: "ConvolutionData"
  bottom: "res3b2_branch2b"
  top: "res3b2_branch2c"
  param {
    lr_mult: 1
    decay_mult: 1
  }
  convolution_param {
    num_output: 512
    bias_term: false
    pad: 0
    kernel_size: 1
    stride: 1
    weight_filler {
      type: "msra"
    }
  }
}
layer {
  name: "res3b2_branch2c_bn"
  type: "BNData"
  bottom: "res3b2_branch2c"
  top: "res3b2_branch2c"
  param {
    lr_mult: 1
    decay_mult: 0
  }
  param {
    lr_mult: 1
    decay_mult: 0
  }
  param {
    lr_mult: 0
    decay_mult: 0
  }
  param {
    lr_mult: 0
    decay_mult: 0
  }
  bn_param {
    scale_filler {
      type: "constant"
      value: 0.1
    }
    shift_filler {
      type: "constant"
      value: 0
    }
    decay: 0.05
    multigpu_sync: ALL
  }
}
layer {
  name: "res3b2"
  type: "Eltwise"
  bottom: "res3b1"
  bottom: "res3b2_branch2c"
  top: "res3b2"
}
layer {
  name: "res3b2_relu"
  type: "ReLU"
  bottom: "res3b2"
  top: "res3b2"
}
layer {
  name: "res3b3_branch2a"
  type: "ConvolutionData"
  bottom: "res3b2"
  top: "res3b3_branch2a"
  param {
    lr_mult: 1
    decay_mult: 1
  }
  convolution_param {
    num_output: 128
    bias_term: false
    pad: 0
    kernel_size: 1
    stride: 1
    weight_filler {
      type: "msra"
    }
  }
}
layer {
  name: "res3b3_branch2a_bn"
  type: "BNData"
  bottom: "res3b3_branch2a"
  top: "res3b3_branch2a"
  param {
    lr_mult: 1
    decay_mult: 0
  }
  param {
    lr_mult: 1
    decay_mult: 0
  }
  param {
    lr_mult: 0
    decay_mult: 0
  }
  param {
    lr_mult: 0
    decay_mult: 0
  }
  bn_param {
    scale_filler {
      type: "constant"
      value: 1
    }
    shift_filler {
      type: "constant"
      value: 0
    }
    decay: 0.05
    multigpu_sync: ALL
  }
}
layer {
  name: "res3b3_branch2a_relu"
  type: "ReLU"
  bottom: "res3b3_branch2a"
  top: "res3b3_branch2a"
}
layer {
  name: "res3b3_branch2b"
  type: "ConvolutionData"
  bottom: "res3b3_branch2a"
  top: "res3b3_branch2b"
  param {
    lr_mult: 1
    decay_mult: 1
  }
  convolution_param {
    num_output: 128
    bias_term: false
    pad: 1
    kernel_size: 3
    stride: 1
    weight_filler {
      type: "msra"
    }
  }
}
layer {
  name: "res3b3_branch2b_bn"
  type: "BNData"
  bottom: "res3b3_branch2b"
  top: "res3b3_branch2b"
  param {
    lr_mult: 1
    decay_mult: 0
  }
  param {
    lr_mult: 1
    decay_mult: 0
  }
  param {
    lr_mult: 0
    decay_mult: 0
  }
  param {
    lr_mult: 0
    decay_mult: 0
  }
  bn_param {
    scale_filler {
      type: "constant"
      value: 1
    }
    shift_filler {
      type: "constant"
      value: 0
    }
    decay: 0.05
    multigpu_sync: ALL
  }
}
layer {
  name: "res3b3_branch2b_relu"
  type: "ReLU"
  bottom: "res3b3_branch2b"
  top: "res3b3_branch2b"
}
layer {
  name: "res3b3_branch2c"
  type: "ConvolutionData"
  bottom: "res3b3_branch2b"
  top: "res3b3_branch2c"
  param {
    lr_mult: 1
    decay_mult: 1
  }
  convolution_param {
    num_output: 512
    bias_term: false
    pad: 0
    kernel_size: 1
    stride: 1
    weight_filler {
      type: "msra"
    }
  }
}
layer {
  name: "res3b3_branch2c_bn"
  type: "BNData"
  bottom: "res3b3_branch2c"
  top: "res3b3_branch2c"
  param {
    lr_mult: 1
    decay_mult: 0
  }
  param {
    lr_mult: 1
    decay_mult: 0
  }
  param {
    lr_mult: 0
    decay_mult: 0
  }
  param {
    lr_mult: 0
    decay_mult: 0
  }
  bn_param {
    scale_filler {
      type: "constant"
      value: 0.1
    }
    shift_filler {
      type: "constant"
      value: 0
    }
    decay: 0.05
    multigpu_sync: ALL
  }
}
layer {
  name: "res3b3"
  type: "Eltwise"
  bottom: "res3b2"
  bottom: "res3b3_branch2c"
  top: "res3b3"
}
layer {
  name: "res3b3_relu"
  type: "ReLU"
  bottom: "res3b3"
  top: "res3b3"
}
layer {
  name: "res4a_branch1"
  type: "ConvolutionData"
  bottom: "res3b3"
  top: "res4a_branch1"
  param {
    lr_mult: 1
    decay_mult: 1
  }
  convolution_param {
    num_output: 1024
    bias_term: false
    pad: 0
    kernel_size: 1
    stride: 2
    weight_filler {
      type: "msra"
    }
  }
}
layer {
  name: "res4a_branch1_bn"
  type: "BNData"
  bottom: "res4a_branch1"
  top: "res4a_branch1"
  param {
    lr_mult: 1
    decay_mult: 0
  }
  param {
    lr_mult: 1
    decay_mult: 0
  }
  param {
    lr_mult: 0
    decay_mult: 0
  }
  param {
    lr_mult: 0
    decay_mult: 0
  }
  bn_param {
    scale_filler {
      type: "constant"
      value: 1
    }
    shift_filler {
      type: "constant"
      value: 0
    }
    decay: 0.05
    multigpu_sync: ALL
  }
}
layer {
  name: "res4a_branch2a"
  type: "ConvolutionData"
  bottom: "res3b3"
  top: "res4a_branch2a"
  param {
    lr_mult: 1
    decay_mult: 1
  }
  convolution_param {
    num_output: 256
    bias_term: false
    pad: 0
    kernel_size: 1
    stride: 1
    weight_filler {
      type: "msra"
    }
  }
}
layer {
  name: "res4a_branch2a_bn"
  type: "BNData"
  bottom: "res4a_branch2a"
  top: "res4a_branch2a"
  param {
    lr_mult: 1
    decay_mult: 0
  }
  param {
    lr_mult: 1
    decay_mult: 0
  }
  param {
    lr_mult: 0
    decay_mult: 0
  }
  param {
    lr_mult: 0
    decay_mult: 0
  }
  bn_param {
    scale_filler {
      type: "constant"
      value: 1
    }
    shift_filler {
      type: "constant"
      value: 0
    }
    decay: 0.05
    multigpu_sync: ALL
  }
}
layer {
  name: "res4a_branch2a_relu"
  type: "ReLU"
  bottom: "res4a_branch2a"
  top: "res4a_branch2a"
}
layer {
  name: "res4a_branch2b"
  type: "ConvolutionData"
  bottom: "res4a_branch2a"
  top: "res4a_branch2b"
  param {
    lr_mult: 1
    decay_mult: 1
  }
  convolution_param {
    num_output: 256
    bias_term: false
    pad: 1
    kernel_size: 3
    stride: 2
    weight_filler {
      type: "msra"
    }
  }
}
layer {
  name: "res4a_branch2b_bn"
  type: "BNData"
  bottom: "res4a_branch2b"
  top: "res4a_branch2b"
  param {
    lr_mult: 1
    decay_mult: 0
  }
  param {
    lr_mult: 1
    decay_mult: 0
  }
  param {
    lr_mult: 0
    decay_mult: 0
  }
  param {
    lr_mult: 0
    decay_mult: 0
  }
  bn_param {
    scale_filler {
      type: "constant"
      value: 1
    }
    shift_filler {
      type: "constant"
      value: 0
    }
    decay: 0.05
    multigpu_sync: ALL
  }
}
layer {
  name: "res4a_branch2b_relu"
  type: "ReLU"
  bottom: "res4a_branch2b"
  top: "res4a_branch2b"
}
layer {
  name: "res4a_branch2c"
  type: "ConvolutionData"
  bottom: "res4a_branch2b"
  top: "res4a_branch2c"
  param {
    lr_mult: 1
    decay_mult: 1
  }
  convolution_param {
    num_output: 1024
    bias_term: false
    pad: 0
    kernel_size: 1
    stride: 1
    weight_filler {
      type: "msra"
    }
  }
}
layer {
  name: "res4a_branch2c_bn"
  type: "BNData"
  bottom: "res4a_branch2c"
  top: "res4a_branch2c"
  param {
    lr_mult: 1
    decay_mult: 0
  }
  param {
    lr_mult: 1
    decay_mult: 0
  }
  param {
    lr_mult: 0
    decay_mult: 0
  }
  param {
    lr_mult: 0
    decay_mult: 0
  }
  bn_param {
    scale_filler {
      type: "constant"
      value: 0.1
    }
    shift_filler {
      type: "constant"
      value: 0
    }
    decay: 0.05
    multigpu_sync: ALL
  }
}
layer {
  name: "res4a"
  type: "Eltwise"
  bottom: "res4a_branch1"
  bottom: "res4a_branch2c"
  top: "res4a"
}
layer {
  name: "res4a_relu"
  type: "ReLU"
  bottom: "res4a"
  top: "res4a"
}
layer {
  name: "res4b1_branch2a"
  type: "ConvolutionData"
  bottom: "res4a"
  top: "res4b1_branch2a"
  param {
    lr_mult: 1
    decay_mult: 1
  }
  convolution_param {
    num_output: 256
    bias_term: false
    pad: 0
    kernel_size: 1
    stride: 1
    weight_filler {
      type: "msra"
    }
  }
}
layer {
  name: "res4b1_branch2a_bn"
  type: "BNData"
  bottom: "res4b1_branch2a"
  top: "res4b1_branch2a"
  param {
    lr_mult: 1
    decay_mult: 0
  }
  param {
    lr_mult: 1
    decay_mult: 0
  }
  param {
    lr_mult: 0
    decay_mult: 0
  }
  param {
    lr_mult: 0
    decay_mult: 0
  }
  bn_param {
    scale_filler {
      type: "constant"
      value: 1
    }
    shift_filler {
      type: "constant"
      value: 0
    }
    decay: 0.05
    multigpu_sync: ALL
  }
}
layer {
  name: "res4b1_branch2a_relu"
  type: "ReLU"
  bottom: "res4b1_branch2a"
  top: "res4b1_branch2a"
}
layer {
  name: "res4b1_branch2b"
  type: "ConvolutionData"
  bottom: "res4b1_branch2a"
  top: "res4b1_branch2b"
  param {
    lr_mult: 1
    decay_mult: 1
  }
  convolution_param {
    num_output: 256
    bias_term: false
    pad: 1
    kernel_size: 3
    stride: 1
    weight_filler {
      type: "msra"
    }
  }
}
layer {
  name: "res4b1_branch2b_bn"
  type: "BNData"
  bottom: "res4b1_branch2b"
  top: "res4b1_branch2b"
  param {
    lr_mult: 1
    decay_mult: 0
  }
  param {
    lr_mult: 1
    decay_mult: 0
  }
  param {
    lr_mult: 0
    decay_mult: 0
  }
  param {
    lr_mult: 0
    decay_mult: 0
  }
  bn_param {
    scale_filler {
      type: "constant"
      value: 1
    }
    shift_filler {
      type: "constant"
      value: 0
    }
    decay: 0.05
    multigpu_sync: ALL
  }
}
layer {
  name: "res4b1_branch2b_relu"
  type: "ReLU"
  bottom: "res4b1_branch2b"
  top: "res4b1_branch2b"
}
layer {
  name: "res4b1_branch2c"
  type: "ConvolutionData"
  bottom: "res4b1_branch2b"
  top: "res4b1_branch2c"
  param {
    lr_mult: 1
    decay_mult: 1
  }
  convolution_param {
    num_output: 1024
    bias_term: false
    pad: 0
    kernel_size: 1
    stride: 1
    weight_filler {
      type: "msra"
    }
  }
}
layer {
  name: "res4b1_branch2c_bn"
  type: "BNData"
  bottom: "res4b1_branch2c"
  top: "res4b1_branch2c"
  param {
    lr_mult: 1
    decay_mult: 0
  }
  param {
    lr_mult: 1
    decay_mult: 0
  }
  param {
    lr_mult: 0
    decay_mult: 0
  }
  param {
    lr_mult: 0
    decay_mult: 0
  }
  bn_param {
    scale_filler {
      type: "constant"
      value: 0.1
    }
    shift_filler {
      type: "constant"
      value: 0
    }
    decay: 0.05
    multigpu_sync: ALL
  }
}
layer {
  name: "res4b1"
  type: "Eltwise"
  bottom: "res4a"
  bottom: "res4b1_branch2c"
  top: "res4b1"
}
layer {
  name: "res4b1_relu"
  type: "ReLU"
  bottom: "res4b1"
  top: "res4b1"
}
layer {
  name: "res4b2_branch2a"
  type: "ConvolutionData"
  bottom: "res4b1"
  top: "res4b2_branch2a"
  param {
    lr_mult: 1
    decay_mult: 1
  }
  convolution_param {
    num_output: 256
    bias_term: false
    pad: 0
    kernel_size: 1
    stride: 1
    weight_filler {
      type: "msra"
    }
  }
}
layer {
  name: "res4b2_branch2a_bn"
  type: "BNData"
  bottom: "res4b2_branch2a"
  top: "res4b2_branch2a"
  param {
    lr_mult: 1
    decay_mult: 0
  }
  param {
    lr_mult: 1
    decay_mult: 0
  }
  param {
    lr_mult: 0
    decay_mult: 0
  }
  param {
    lr_mult: 0
    decay_mult: 0
  }
  bn_param {
    scale_filler {
      type: "constant"
      value: 1
    }
    shift_filler {
      type: "constant"
      value: 0
    }
    decay: 0.05
    multigpu_sync: ALL
  }
}
layer {
  name: "res4b2_branch2a_relu"
  type: "ReLU"
  bottom: "res4b2_branch2a"
  top: "res4b2_branch2a"
}
layer {
  name: "res4b2_branch2b"
  type: "ConvolutionData"
  bottom: "res4b2_branch2a"
  top: "res4b2_branch2b"
  param {
    lr_mult: 1
    decay_mult: 1
  }
  convolution_param {
    num_output: 256
    bias_term: false
    pad: 1
    kernel_size: 3
    stride: 1
    weight_filler {
      type: "msra"
    }
  }
}
layer {
  name: "res4b2_branch2b_bn"
  type: "BNData"
  bottom: "res4b2_branch2b"
  top: "res4b2_branch2b"
  param {
    lr_mult: 1
    decay_mult: 0
  }
  param {
    lr_mult: 1
    decay_mult: 0
  }
  param {
    lr_mult: 0
    decay_mult: 0
  }
  param {
    lr_mult: 0
    decay_mult: 0
  }
  bn_param {
    scale_filler {
      type: "constant"
      value: 1
    }
    shift_filler {
      type: "constant"
      value: 0
    }
    decay: 0.05
    multigpu_sync: ALL
  }
}
layer {
  name: "res4b2_branch2b_relu"
  type: "ReLU"
  bottom: "res4b2_branch2b"
  top: "res4b2_branch2b"
}
layer {
  name: "res4b2_branch2c"
  type: "ConvolutionData"
  bottom: "res4b2_branch2b"
  top: "res4b2_branch2c"
  param {
    lr_mult: 1
    decay_mult: 1
  }
  convolution_param {
    num_output: 1024
    bias_term: false
    pad: 0
    kernel_size: 1
    stride: 1
    weight_filler {
      type: "msra"
    }
  }
}
layer {
  name: "res4b2_branch2c_bn"
  type: "BNData"
  bottom: "res4b2_branch2c"
  top: "res4b2_branch2c"
  param {
    lr_mult: 1
    decay_mult: 0
  }
  param {
    lr_mult: 1
    decay_mult: 0
  }
  param {
    lr_mult: 0
    decay_mult: 0
  }
  param {
    lr_mult: 0
    decay_mult: 0
  }
  bn_param {
    scale_filler {
      type: "constant"
      value: 0.1
    }
    shift_filler {
      type: "constant"
      value: 0
    }
    decay: 0.05
    multigpu_sync: ALL
  }
}
layer {
  name: "res4b2"
  type: "Eltwise"
  bottom: "res4b1"
  bottom: "res4b2_branch2c"
  top: "res4b2"
}
layer {
  name: "res4b2_relu"
  type: "ReLU"
  bottom: "res4b2"
  top: "res4b2"
}
layer {
  name: "res4b3_branch2a"
  type: "ConvolutionData"
  bottom: "res4b2"
  top: "res4b3_branch2a"
  param {
    lr_mult: 1
    decay_mult: 1
  }
  convolution_param {
    num_output: 256
    bias_term: false
    pad: 0
    kernel_size: 1
    stride: 1
    weight_filler {
      type: "msra"
    }
  }
}
layer {
  name: "res4b3_branch2a_bn"
  type: "BNData"
  bottom: "res4b3_branch2a"
  top: "res4b3_branch2a"
  param {
    lr_mult: 1
    decay_mult: 0
  }
  param {
    lr_mult: 1
    decay_mult: 0
  }
  param {
    lr_mult: 0
    decay_mult: 0
  }
  param {
    lr_mult: 0
    decay_mult: 0
  }
  bn_param {
    scale_filler {
      type: "constant"
      value: 1
    }
    shift_filler {
      type: "constant"
      value: 0
    }
    decay: 0.05
    multigpu_sync: ALL
  }
}
layer {
  name: "res4b3_branch2a_relu"
  type: "ReLU"
  bottom: "res4b3_branch2a"
  top: "res4b3_branch2a"
}
layer {
  name: "res4b3_branch2b"
  type: "ConvolutionData"
  bottom: "res4b3_branch2a"
  top: "res4b3_branch2b"
  param {
    lr_mult: 1
    decay_mult: 1
  }
  convolution_param {
    num_output: 256
    bias_term: false
    pad: 1
    kernel_size: 3
    stride: 1
    weight_filler {
      type: "msra"
    }
  }
}
layer {
  name: "res4b3_branch2b_bn"
  type: "BNData"
  bottom: "res4b3_branch2b"
  top: "res4b3_branch2b"
  param {
    lr_mult: 1
    decay_mult: 0
  }
  param {
    lr_mult: 1
    decay_mult: 0
  }
  param {
    lr_mult: 0
    decay_mult: 0
  }
  param {
    lr_mult: 0
    decay_mult: 0
  }
  bn_param {
    scale_filler {
      type: "constant"
      value: 1
    }
    shift_filler {
      type: "constant"
      value: 0
    }
    decay: 0.05
    multigpu_sync: ALL
  }
}
layer {
  name: "res4b3_branch2b_relu"
  type: "ReLU"
  bottom: "res4b3_branch2b"
  top: "res4b3_branch2b"
}
layer {
  name: "res4b3_branch2c"
  type: "ConvolutionData"
  bottom: "res4b3_branch2b"
  top: "res4b3_branch2c"
  param {
    lr_mult: 1
    decay_mult: 1
  }
  convolution_param {
    num_output: 1024
    bias_term: false
    pad: 0
    kernel_size: 1
    stride: 1
    weight_filler {
      type: "msra"
    }
  }
}
layer {
  name: "res4b3_branch2c_bn"
  type: "BNData"
  bottom: "res4b3_branch2c"
  top: "res4b3_branch2c"
  param {
    lr_mult: 1
    decay_mult: 0
  }
  param {
    lr_mult: 1
    decay_mult: 0
  }
  param {
    lr_mult: 0
    decay_mult: 0
  }
  param {
    lr_mult: 0
    decay_mult: 0
  }
  bn_param {
    scale_filler {
      type: "constant"
      value: 0.1
    }
    shift_filler {
      type: "constant"
      value: 0
    }
    decay: 0.05
    multigpu_sync: ALL
  }
}
layer {
  name: "res4b3"
  type: "Eltwise"
  bottom: "res4b2"
  bottom: "res4b3_branch2c"
  top: "res4b3"
}
layer {
  name: "res4b3_relu"
  type: "ReLU"
  bottom: "res4b3"
  top: "res4b3"
}
layer {
  name: "res4b4_branch2a"
  type: "ConvolutionData"
  bottom: "res4b3"
  top: "res4b4_branch2a"
  param {
    lr_mult: 1
    decay_mult: 1
  }
  convolution_param {
    num_output: 256
    bias_term: false
    pad: 0
    kernel_size: 1
    stride: 1
    weight_filler {
      type: "msra"
    }
  }
}
layer {
  name: "res4b4_branch2a_bn"
  type: "BNData"
  bottom: "res4b4_branch2a"
  top: "res4b4_branch2a"
  param {
    lr_mult: 1
    decay_mult: 0
  }
  param {
    lr_mult: 1
    decay_mult: 0
  }
  param {
    lr_mult: 0
    decay_mult: 0
  }
  param {
    lr_mult: 0
    decay_mult: 0
  }
  bn_param {
    scale_filler {
      type: "constant"
      value: 1
    }
    shift_filler {
      type: "constant"
      value: 0
    }
    decay: 0.05
    multigpu_sync: ALL
  }
}
layer {
  name: "res4b4_branch2a_relu"
  type: "ReLU"
  bottom: "res4b4_branch2a"
  top: "res4b4_branch2a"
}
layer {
  name: "res4b4_branch2b"
  type: "ConvolutionData"
  bottom: "res4b4_branch2a"
  top: "res4b4_branch2b"
  param {
    lr_mult: 1
    decay_mult: 1
  }
  convolution_param {
    num_output: 256
    bias_term: false
    pad: 1
    kernel_size: 3
    stride: 1
    weight_filler {
      type: "msra"
    }
  }
}
layer {
  name: "res4b4_branch2b_bn"
  type: "BNData"
  bottom: "res4b4_branch2b"
  top: "res4b4_branch2b"
  param {
    lr_mult: 1
    decay_mult: 0
  }
  param {
    lr_mult: 1
    decay_mult: 0
  }
  param {
    lr_mult: 0
    decay_mult: 0
  }
  param {
    lr_mult: 0
    decay_mult: 0
  }
  bn_param {
    scale_filler {
      type: "constant"
      value: 1
    }
    shift_filler {
      type: "constant"
      value: 0
    }
    decay: 0.05
    multigpu_sync: ALL
  }
}
layer {
  name: "res4b4_branch2b_relu"
  type: "ReLU"
  bottom: "res4b4_branch2b"
  top: "res4b4_branch2b"
}
layer {
  name: "res4b4_branch2c"
  type: "ConvolutionData"
  bottom: "res4b4_branch2b"
  top: "res4b4_branch2c"
  param {
    lr_mult: 1
    decay_mult: 1
  }
  convolution_param {
    num_output: 1024
    bias_term: false
    pad: 0
    kernel_size: 1
    stride: 1
    weight_filler {
      type: "msra"
    }
  }
}
layer {
  name: "res4b4_branch2c_bn"
  type: "BNData"
  bottom: "res4b4_branch2c"
  top: "res4b4_branch2c"
  param {
    lr_mult: 1
    decay_mult: 0
  }
  param {
    lr_mult: 1
    decay_mult: 0
  }
  param {
    lr_mult: 0
    decay_mult: 0
  }
  param {
    lr_mult: 0
    decay_mult: 0
  }
  bn_param {
    scale_filler {
      type: "constant"
      value: 0.1
    }
    shift_filler {
      type: "constant"
      value: 0
    }
    decay: 0.05
    multigpu_sync: ALL
  }
}
layer {
  name: "res4b4"
  type: "Eltwise"
  bottom: "res4b3"
  bottom: "res4b4_branch2c"
  top: "res4b4"
}
layer {
  name: "res4b4_relu"
  type: "ReLU"
  bottom: "res4b4"
  top: "res4b4"
}
layer {
  name: "res4b5_branch2a"
  type: "ConvolutionData"
  bottom: "res4b4"
  top: "res4b5_branch2a"
  param {
    lr_mult: 1
    decay_mult: 1
  }
  convolution_param {
    num_output: 256
    bias_term: false
    pad: 0
    kernel_size: 1
    stride: 1
    weight_filler {
      type: "msra"
    }
  }
}
layer {
  name: "res4b5_branch2a_bn"
  type: "BNData"
  bottom: "res4b5_branch2a"
  top: "res4b5_branch2a"
  param {
    lr_mult: 1
    decay_mult: 0
  }
  param {
    lr_mult: 1
    decay_mult: 0
  }
  param {
    lr_mult: 0
    decay_mult: 0
  }
  param {
    lr_mult: 0
    decay_mult: 0
  }
  bn_param {
    scale_filler {
      type: "constant"
      value: 1
    }
    shift_filler {
      type: "constant"
      value: 0
    }
    decay: 0.05
    multigpu_sync: ALL
  }
}
layer {
  name: "res4b5_branch2a_relu"
  type: "ReLU"
  bottom: "res4b5_branch2a"
  top: "res4b5_branch2a"
}
layer {
  name: "res4b5_branch2b"
  type: "ConvolutionData"
  bottom: "res4b5_branch2a"
  top: "res4b5_branch2b"
  param {
    lr_mult: 1
    decay_mult: 1
  }
  convolution_param {
    num_output: 256
    bias_term: false
    pad: 1
    kernel_size: 3
    stride: 1
    weight_filler {
      type: "msra"
    }
  }
}
layer {
  name: "res4b5_branch2b_bn"
  type: "BNData"
  bottom: "res4b5_branch2b"
  top: "res4b5_branch2b"
  param {
    lr_mult: 1
    decay_mult: 0
  }
  param {
    lr_mult: 1
    decay_mult: 0
  }
  param {
    lr_mult: 0
    decay_mult: 0
  }
  param {
    lr_mult: 0
    decay_mult: 0
  }
  bn_param {
    scale_filler {
      type: "constant"
      value: 1
    }
    shift_filler {
      type: "constant"
      value: 0
    }
    decay: 0.05
    multigpu_sync: ALL
  }
}
layer {
  name: "res4b5_branch2b_relu"
  type: "ReLU"
  bottom: "res4b5_branch2b"
  top: "res4b5_branch2b"
}
layer {
  name: "res4b5_branch2c"
  type: "ConvolutionData"
  bottom: "res4b5_branch2b"
  top: "res4b5_branch2c"
  param {
    lr_mult: 1
    decay_mult: 1
  }
  convolution_param {
    num_output: 1024
    bias_term: false
    pad: 0
    kernel_size: 1
    stride: 1
    weight_filler {
      type: "msra"
    }
  }
}
layer {
  name: "res4b5_branch2c_bn"
  type: "BNData"
  bottom: "res4b5_branch2c"
  top: "res4b5_branch2c"
  param {
    lr_mult: 1
    decay_mult: 0
  }
  param {
    lr_mult: 1
    decay_mult: 0
  }
  param {
    lr_mult: 0
    decay_mult: 0
  }
  param {
    lr_mult: 0
    decay_mult: 0
  }
  bn_param {
    scale_filler {
      type: "constant"
      value: 0.1
    }
    shift_filler {
      type: "constant"
      value: 0
    }
    decay: 0.05
    multigpu_sync: ALL
  }
}
layer {
  name: "res4b5"
  type: "Eltwise"
  bottom: "res4b4"
  bottom: "res4b5_branch2c"
  top: "res4b5"
}
layer {
  name: "res4b5_relu"
  type: "ReLU"
  bottom: "res4b5"
  top: "res4b5"
}
layer {
  name: "res4b6_branch2a"
  type: "ConvolutionData"
  bottom: "res4b5"
  top: "res4b6_branch2a"
  param {
    lr_mult: 1
    decay_mult: 1
  }
  convolution_param {
    num_output: 256
    bias_term: false
    pad: 0
    kernel_size: 1
    stride: 1
    weight_filler {
      type: "msra"
    }
  }
}
layer {
  name: "res4b6_branch2a_bn"
  type: "BNData"
  bottom: "res4b6_branch2a"
  top: "res4b6_branch2a"
  param {
    lr_mult: 1
    decay_mult: 0
  }
  param {
    lr_mult: 1
    decay_mult: 0
  }
  param {
    lr_mult: 0
    decay_mult: 0
  }
  param {
    lr_mult: 0
    decay_mult: 0
  }
  bn_param {
    scale_filler {
      type: "constant"
      value: 1
    }
    shift_filler {
      type: "constant"
      value: 0
    }
    decay: 0.05
    multigpu_sync: ALL
  }
}
layer {
  name: "res4b6_branch2a_relu"
  type: "ReLU"
  bottom: "res4b6_branch2a"
  top: "res4b6_branch2a"
}
layer {
  name: "res4b6_branch2b"
  type: "ConvolutionData"
  bottom: "res4b6_branch2a"
  top: "res4b6_branch2b"
  param {
    lr_mult: 1
    decay_mult: 1
  }
  convolution_param {
    num_output: 256
    bias_term: false
    pad: 1
    kernel_size: 3
    stride: 1
    weight_filler {
      type: "msra"
    }
  }
}
layer {
  name: "res4b6_branch2b_bn"
  type: "BNData"
  bottom: "res4b6_branch2b"
  top: "res4b6_branch2b"
  param {
    lr_mult: 1
    decay_mult: 0
  }
  param {
    lr_mult: 1
    decay_mult: 0
  }
  param {
    lr_mult: 0
    decay_mult: 0
  }
  param {
    lr_mult: 0
    decay_mult: 0
  }
  bn_param {
    scale_filler {
      type: "constant"
      value: 1
    }
    shift_filler {
      type: "constant"
      value: 0
    }
    decay: 0.05
    multigpu_sync: ALL
  }
}
layer {
  name: "res4b6_branch2b_relu"
  type: "ReLU"
  bottom: "res4b6_branch2b"
  top: "res4b6_branch2b"
}
layer {
  name: "res4b6_branch2c"
  type: "ConvolutionData"
  bottom: "res4b6_branch2b"
  top: "res4b6_branch2c"
  param {
    lr_mult: 1
    decay_mult: 1
  }
  convolution_param {
    num_output: 1024
    bias_term: false
    pad: 0
    kernel_size: 1
    stride: 1
    weight_filler {
      type: "msra"
    }
  }
}
layer {
  name: "res4b6_branch2c_bn"
  type: "BNData"
  bottom: "res4b6_branch2c"
  top: "res4b6_branch2c"
  param {
    lr_mult: 1
    decay_mult: 0
  }
  param {
    lr_mult: 1
    decay_mult: 0
  }
  param {
    lr_mult: 0
    decay_mult: 0
  }
  param {
    lr_mult: 0
    decay_mult: 0
  }
  bn_param {
    scale_filler {
      type: "constant"
      value: 0.1
    }
    shift_filler {
      type: "constant"
      value: 0
    }
    decay: 0.05
    multigpu_sync: ALL
  }
}
layer {
  name: "res4b6"
  type: "Eltwise"
  bottom: "res4b5"
  bottom: "res4b6_branch2c"
  top: "res4b6"
}
layer {
  name: "res4b6_relu"
  type: "ReLU"
  bottom: "res4b6"
  top: "res4b6"
}
layer {
  name: "res4b7_branch2a"
  type: "ConvolutionData"
  bottom: "res4b6"
  top: "res4b7_branch2a"
  param {
    lr_mult: 1
    decay_mult: 1
  }
  convolution_param {
    num_output: 256
    bias_term: false
    pad: 0
    kernel_size: 1
    stride: 1
    weight_filler {
      type: "msra"
    }
  }
}
layer {
  name: "res4b7_branch2a_bn"
  type: "BNData"
  bottom: "res4b7_branch2a"
  top: "res4b7_branch2a"
  param {
    lr_mult: 1
    decay_mult: 0
  }
  param {
    lr_mult: 1
    decay_mult: 0
  }
  param {
    lr_mult: 0
    decay_mult: 0
  }
  param {
    lr_mult: 0
    decay_mult: 0
  }
  bn_param {
    scale_filler {
      type: "constant"
      value: 1
    }
    shift_filler {
      type: "constant"
      value: 0
    }
    decay: 0.05
    multigpu_sync: ALL
  }
}
layer {
  name: "res4b7_branch2a_relu"
  type: "ReLU"
  bottom: "res4b7_branch2a"
  top: "res4b7_branch2a"
}
layer {
  name: "res4b7_branch2b"
  type: "ConvolutionData"
  bottom: "res4b7_branch2a"
  top: "res4b7_branch2b"
  param {
    lr_mult: 1
    decay_mult: 1
  }
  convolution_param {
    num_output: 256
    bias_term: false
    pad: 1
    kernel_size: 3
    stride: 1
    weight_filler {
      type: "msra"
    }
  }
}
layer {
  name: "res4b7_branch2b_bn"
  type: "BNData"
  bottom: "res4b7_branch2b"
  top: "res4b7_branch2b"
  param {
    lr_mult: 1
    decay_mult: 0
  }
  param {
    lr_mult: 1
    decay_mult: 0
  }
  param {
    lr_mult: 0
    decay_mult: 0
  }
  param {
    lr_mult: 0
    decay_mult: 0
  }
  bn_param {
    scale_filler {
      type: "constant"
      value: 1
    }
    shift_filler {
      type: "constant"
      value: 0
    }
    decay: 0.05
    multigpu_sync: ALL
  }
}
layer {
  name: "res4b7_branch2b_relu"
  type: "ReLU"
  bottom: "res4b7_branch2b"
  top: "res4b7_branch2b"
}
layer {
  name: "res4b7_branch2c"
  type: "ConvolutionData"
  bottom: "res4b7_branch2b"
  top: "res4b7_branch2c"
  param {
    lr_mult: 1
    decay_mult: 1
  }
  convolution_param {
    num_output: 1024
    bias_term: false
    pad: 0
    kernel_size: 1
    stride: 1
    weight_filler {
      type: "msra"
    }
  }
}
layer {
  name: "res4b7_branch2c_bn"
  type: "BNData"
  bottom: "res4b7_branch2c"
  top: "res4b7_branch2c"
  param {
    lr_mult: 1
    decay_mult: 0
  }
  param {
    lr_mult: 1
    decay_mult: 0
  }
  param {
    lr_mult: 0
    decay_mult: 0
  }
  param {
    lr_mult: 0
    decay_mult: 0
  }
  bn_param {
    scale_filler {
      type: "constant"
      value: 0.1
    }
    shift_filler {
      type: "constant"
      value: 0
    }
    decay: 0.05
    multigpu_sync: ALL
  }
}
layer {
  name: "res4b7"
  type: "Eltwise"
  bottom: "res4b6"
  bottom: "res4b7_branch2c"
  top: "res4b7"
}
layer {
  name: "res4b7_relu"
  type: "ReLU"
  bottom: "res4b7"
  top: "res4b7"
}
layer {
  name: "res4b8_branch2a"
  type: "ConvolutionData"
  bottom: "res4b7"
  top: "res4b8_branch2a"
  param {
    lr_mult: 1
    decay_mult: 1
  }
  convolution_param {
    num_output: 256
    bias_term: false
    pad: 0
    kernel_size: 1
    stride: 1
    weight_filler {
      type: "msra"
    }
  }
}
layer {
  name: "res4b8_branch2a_bn"
  type: "BNData"
  bottom: "res4b8_branch2a"
  top: "res4b8_branch2a"
  param {
    lr_mult: 1
    decay_mult: 0
  }
  param {
    lr_mult: 1
    decay_mult: 0
  }
  param {
    lr_mult: 0
    decay_mult: 0
  }
  param {
    lr_mult: 0
    decay_mult: 0
  }
  bn_param {
    scale_filler {
      type: "constant"
      value: 1
    }
    shift_filler {
      type: "constant"
      value: 0
    }
    decay: 0.05
    multigpu_sync: ALL
  }
}
layer {
  name: "res4b8_branch2a_relu"
  type: "ReLU"
  bottom: "res4b8_branch2a"
  top: "res4b8_branch2a"
}
layer {
  name: "res4b8_branch2b"
  type: "ConvolutionData"
  bottom: "res4b8_branch2a"
  top: "res4b8_branch2b"
  param {
    lr_mult: 1
    decay_mult: 1
  }
  convolution_param {
    num_output: 256
    bias_term: false
    pad: 1
    kernel_size: 3
    stride: 1
    weight_filler {
      type: "msra"
    }
  }
}
layer {
  name: "res4b8_branch2b_bn"
  type: "BNData"
  bottom: "res4b8_branch2b"
  top: "res4b8_branch2b"
  param {
    lr_mult: 1
    decay_mult: 0
  }
  param {
    lr_mult: 1
    decay_mult: 0
  }
  param {
    lr_mult: 0
    decay_mult: 0
  }
  param {
    lr_mult: 0
    decay_mult: 0
  }
  bn_param {
    scale_filler {
      type: "constant"
      value: 1
    }
    shift_filler {
      type: "constant"
      value: 0
    }
    decay: 0.05
    multigpu_sync: ALL
  }
}
layer {
  name: "res4b8_branch2b_relu"
  type: "ReLU"
  bottom: "res4b8_branch2b"
  top: "res4b8_branch2b"
}
layer {
  name: "res4b8_branch2c"
  type: "ConvolutionData"
  bottom: "res4b8_branch2b"
  top: "res4b8_branch2c"
  param {
    lr_mult: 1
    decay_mult: 1
  }
  convolution_param {
    num_output: 1024
    bias_term: false
    pad: 0
    kernel_size: 1
    stride: 1
    weight_filler {
      type: "msra"
    }
  }
}
layer {
  name: "res4b8_branch2c_bn"
  type: "BNData"
  bottom: "res4b8_branch2c"
  top: "res4b8_branch2c"
  param {
    lr_mult: 1
    decay_mult: 0
  }
  param {
    lr_mult: 1
    decay_mult: 0
  }
  param {
    lr_mult: 0
    decay_mult: 0
  }
  param {
    lr_mult: 0
    decay_mult: 0
  }
  bn_param {
    scale_filler {
      type: "constant"
      value: 0.1
    }
    shift_filler {
      type: "constant"
      value: 0
    }
    decay: 0.05
    multigpu_sync: ALL
  }
}
layer {
  name: "res4b8"
  type: "Eltwise"
  bottom: "res4b7"
  bottom: "res4b8_branch2c"
  top: "res4b8"
}
layer {
  name: "res4b8_relu"
  type: "ReLU"
  bottom: "res4b8"
  top: "res4b8"
}
layer {
  name: "res4b9_branch2a"
  type: "ConvolutionData"
  bottom: "res4b8"
  top: "res4b9_branch2a"
  param {
    lr_mult: 1
    decay_mult: 1
  }
  convolution_param {
    num_output: 256
    bias_term: false
    pad: 0
    kernel_size: 1
    stride: 1
    weight_filler {
      type: "msra"
    }
  }
}
layer {
  name: "res4b9_branch2a_bn"
  type: "BNData"
  bottom: "res4b9_branch2a"
  top: "res4b9_branch2a"
  param {
    lr_mult: 1
    decay_mult: 0
  }
  param {
    lr_mult: 1
    decay_mult: 0
  }
  param {
    lr_mult: 0
    decay_mult: 0
  }
  param {
    lr_mult: 0
    decay_mult: 0
  }
  bn_param {
    scale_filler {
      type: "constant"
      value: 1
    }
    shift_filler {
      type: "constant"
      value: 0
    }
    decay: 0.05
    multigpu_sync: ALL
  }
}
layer {
  name: "res4b9_branch2a_relu"
  type: "ReLU"
  bottom: "res4b9_branch2a"
  top: "res4b9_branch2a"
}
layer {
  name: "res4b9_branch2b"
  type: "ConvolutionData"
  bottom: "res4b9_branch2a"
  top: "res4b9_branch2b"
  param {
    lr_mult: 1
    decay_mult: 1
  }
  convolution_param {
    num_output: 256
    bias_term: false
    pad: 1
    kernel_size: 3
    stride: 1
    weight_filler {
      type: "msra"
    }
  }
}
layer {
  name: "res4b9_branch2b_bn"
  type: "BNData"
  bottom: "res4b9_branch2b"
  top: "res4b9_branch2b"
  param {
    lr_mult: 1
    decay_mult: 0
  }
  param {
    lr_mult: 1
    decay_mult: 0
  }
  param {
    lr_mult: 0
    decay_mult: 0
  }
  param {
    lr_mult: 0
    decay_mult: 0
  }
  bn_param {
    scale_filler {
      type: "constant"
      value: 1
    }
    shift_filler {
      type: "constant"
      value: 0
    }
    decay: 0.05
    multigpu_sync: ALL
  }
}
layer {
  name: "res4b9_branch2b_relu"
  type: "ReLU"
  bottom: "res4b9_branch2b"
  top: "res4b9_branch2b"
}
layer {
  name: "res4b9_branch2c"
  type: "ConvolutionData"
  bottom: "res4b9_branch2b"
  top: "res4b9_branch2c"
  param {
    lr_mult: 1
    decay_mult: 1
  }
  convolution_param {
    num_output: 1024
    bias_term: false
    pad: 0
    kernel_size: 1
    stride: 1
    weight_filler {
      type: "msra"
    }
  }
}
layer {
  name: "res4b9_branch2c_bn"
  type: "BNData"
  bottom: "res4b9_branch2c"
  top: "res4b9_branch2c"
  param {
    lr_mult: 1
    decay_mult: 0
  }
  param {
    lr_mult: 1
    decay_mult: 0
  }
  param {
    lr_mult: 0
    decay_mult: 0
  }
  param {
    lr_mult: 0
    decay_mult: 0
  }
  bn_param {
    scale_filler {
      type: "constant"
      value: 0.1
    }
    shift_filler {
      type: "constant"
      value: 0
    }
    decay: 0.05
    multigpu_sync: ALL
  }
}
layer {
  name: "res4b9"
  type: "Eltwise"
  bottom: "res4b8"
  bottom: "res4b9_branch2c"
  top: "res4b9"
}
layer {
  name: "res4b9_relu"
  type: "ReLU"
  bottom: "res4b9"
  top: "res4b9"
}
layer {
  name: "res4b10_branch2a"
  type: "ConvolutionData"
  bottom: "res4b9"
  top: "res4b10_branch2a"
  param {
    lr_mult: 1
    decay_mult: 1
  }
  convolution_param {
    num_output: 256
    bias_term: false
    pad: 0
    kernel_size: 1
    stride: 1
    weight_filler {
      type: "msra"
    }
  }
}
layer {
  name: "res4b10_branch2a_bn"
  type: "BNData"
  bottom: "res4b10_branch2a"
  top: "res4b10_branch2a"
  param {
    lr_mult: 1
    decay_mult: 0
  }
  param {
    lr_mult: 1
    decay_mult: 0
  }
  param {
    lr_mult: 0
    decay_mult: 0
  }
  param {
    lr_mult: 0
    decay_mult: 0
  }
  bn_param {
    scale_filler {
      type: "constant"
      value: 1
    }
    shift_filler {
      type: "constant"
      value: 0
    }
    decay: 0.05
    multigpu_sync: ALL
  }
}
layer {
  name: "res4b10_branch2a_relu"
  type: "ReLU"
  bottom: "res4b10_branch2a"
  top: "res4b10_branch2a"
}
layer {
  name: "res4b10_branch2b"
  type: "ConvolutionData"
  bottom: "res4b10_branch2a"
  top: "res4b10_branch2b"
  param {
    lr_mult: 1
    decay_mult: 1
  }
  convolution_param {
    num_output: 256
    bias_term: false
    pad: 1
    kernel_size: 3
    stride: 1
    weight_filler {
      type: "msra"
    }
  }
}
layer {
  name: "res4b10_branch2b_bn"
  type: "BNData"
  bottom: "res4b10_branch2b"
  top: "res4b10_branch2b"
  param {
    lr_mult: 1
    decay_mult: 0
  }
  param {
    lr_mult: 1
    decay_mult: 0
  }
  param {
    lr_mult: 0
    decay_mult: 0
  }
  param {
    lr_mult: 0
    decay_mult: 0
  }
  bn_param {
    scale_filler {
      type: "constant"
      value: 1
    }
    shift_filler {
      type: "constant"
      value: 0
    }
    decay: 0.05
    multigpu_sync: ALL
  }
}
layer {
  name: "res4b10_branch2b_relu"
  type: "ReLU"
  bottom: "res4b10_branch2b"
  top: "res4b10_branch2b"
}
layer {
  name: "res4b10_branch2c"
  type: "ConvolutionData"
  bottom: "res4b10_branch2b"
  top: "res4b10_branch2c"
  param {
    lr_mult: 1
    decay_mult: 1
  }
  convolution_param {
    num_output: 1024
    bias_term: false
    pad: 0
    kernel_size: 1
    stride: 1
    weight_filler {
      type: "msra"
    }
  }
}
layer {
  name: "res4b10_branch2c_bn"
  type: "BNData"
  bottom: "res4b10_branch2c"
  top: "res4b10_branch2c"
  param {
    lr_mult: 1
    decay_mult: 0
  }
  param {
    lr_mult: 1
    decay_mult: 0
  }
  param {
    lr_mult: 0
    decay_mult: 0
  }
  param {
    lr_mult: 0
    decay_mult: 0
  }
  bn_param {
    scale_filler {
      type: "constant"
      value: 0.1
    }
    shift_filler {
      type: "constant"
      value: 0
    }
    decay: 0.05
    multigpu_sync: ALL
  }
}
layer {
  name: "res4b10"
  type: "Eltwise"
  bottom: "res4b9"
  bottom: "res4b10_branch2c"
  top: "res4b10"
}
layer {
  name: "res4b10_relu"
  type: "ReLU"
  bottom: "res4b10"
  top: "res4b10"
}
layer {
  name: "res4b11_branch2a"
  type: "ConvolutionData"
  bottom: "res4b10"
  top: "res4b11_branch2a"
  param {
    lr_mult: 1
    decay_mult: 1
  }
  convolution_param {
    num_output: 256
    bias_term: false
    pad: 0
    kernel_size: 1
    stride: 1
    weight_filler {
      type: "msra"
    }
  }
}
layer {
  name: "res4b11_branch2a_bn"
  type: "BNData"
  bottom: "res4b11_branch2a"
  top: "res4b11_branch2a"
  param {
    lr_mult: 1
    decay_mult: 0
  }
  param {
    lr_mult: 1
    decay_mult: 0
  }
  param {
    lr_mult: 0
    decay_mult: 0
  }
  param {
    lr_mult: 0
    decay_mult: 0
  }
  bn_param {
    scale_filler {
      type: "constant"
      value: 1
    }
    shift_filler {
      type: "constant"
      value: 0
    }
    decay: 0.05
    multigpu_sync: ALL
  }
}
layer {
  name: "res4b11_branch2a_relu"
  type: "ReLU"
  bottom: "res4b11_branch2a"
  top: "res4b11_branch2a"
}
layer {
  name: "res4b11_branch2b"
  type: "ConvolutionData"
  bottom: "res4b11_branch2a"
  top: "res4b11_branch2b"
  param {
    lr_mult: 1
    decay_mult: 1
  }
  convolution_param {
    num_output: 256
    bias_term: false
    pad: 1
    kernel_size: 3
    stride: 1
    weight_filler {
      type: "msra"
    }
  }
}
layer {
  name: "res4b11_branch2b_bn"
  type: "BNData"
  bottom: "res4b11_branch2b"
  top: "res4b11_branch2b"
  param {
    lr_mult: 1
    decay_mult: 0
  }
  param {
    lr_mult: 1
    decay_mult: 0
  }
  param {
    lr_mult: 0
    decay_mult: 0
  }
  param {
    lr_mult: 0
    decay_mult: 0
  }
  bn_param {
    scale_filler {
      type: "constant"
      value: 1
    }
    shift_filler {
      type: "constant"
      value: 0
    }
    decay: 0.05
    multigpu_sync: ALL
  }
}
layer {
  name: "res4b11_branch2b_relu"
  type: "ReLU"
  bottom: "res4b11_branch2b"
  top: "res4b11_branch2b"
}
layer {
  name: "res4b11_branch2c"
  type: "ConvolutionData"
  bottom: "res4b11_branch2b"
  top: "res4b11_branch2c"
  param {
    lr_mult: 1
    decay_mult: 1
  }
  convolution_param {
    num_output: 1024
    bias_term: false
    pad: 0
    kernel_size: 1
    stride: 1
    weight_filler {
      type: "msra"
    }
  }
}
layer {
  name: "res4b11_branch2c_bn"
  type: "BNData"
  bottom: "res4b11_branch2c"
  top: "res4b11_branch2c"
  param {
    lr_mult: 1
    decay_mult: 0
  }
  param {
    lr_mult: 1
    decay_mult: 0
  }
  param {
    lr_mult: 0
    decay_mult: 0
  }
  param {
    lr_mult: 0
    decay_mult: 0
  }
  bn_param {
    scale_filler {
      type: "constant"
      value: 0.1
    }
    shift_filler {
      type: "constant"
      value: 0
    }
    decay: 0.05
    multigpu_sync: ALL
  }
}
layer {
  name: "res4b11"
  type: "Eltwise"
  bottom: "res4b10"
  bottom: "res4b11_branch2c"
  top: "res4b11"
}
layer {
  name: "res4b11_relu"
  type: "ReLU"
  bottom: "res4b11"
  top: "res4b11"
}
layer {
  name: "res4b12_branch2a"
  type: "ConvolutionData"
  bottom: "res4b11"
  top: "res4b12_branch2a"
  param {
    lr_mult: 1
    decay_mult: 1
  }
  convolution_param {
    num_output: 256
    bias_term: false
    pad: 0
    kernel_size: 1
    stride: 1
    weight_filler {
      type: "msra"
    }
  }
}
layer {
  name: "res4b12_branch2a_bn"
  type: "BNData"
  bottom: "res4b12_branch2a"
  top: "res4b12_branch2a"
  param {
    lr_mult: 1
    decay_mult: 0
  }
  param {
    lr_mult: 1
    decay_mult: 0
  }
  param {
    lr_mult: 0
    decay_mult: 0
  }
  param {
    lr_mult: 0
    decay_mult: 0
  }
  bn_param {
    scale_filler {
      type: "constant"
      value: 1
    }
    shift_filler {
      type: "constant"
      value: 0
    }
    decay: 0.05
    multigpu_sync: ALL
  }
}
layer {
  name: "res4b12_branch2a_relu"
  type: "ReLU"
  bottom: "res4b12_branch2a"
  top: "res4b12_branch2a"
}
layer {
  name: "res4b12_branch2b"
  type: "ConvolutionData"
  bottom: "res4b12_branch2a"
  top: "res4b12_branch2b"
  param {
    lr_mult: 1
    decay_mult: 1
  }
  convolution_param {
    num_output: 256
    bias_term: false
    pad: 1
    kernel_size: 3
    stride: 1
    weight_filler {
      type: "msra"
    }
  }
}
layer {
  name: "res4b12_branch2b_bn"
  type: "BNData"
  bottom: "res4b12_branch2b"
  top: "res4b12_branch2b"
  param {
    lr_mult: 1
    decay_mult: 0
  }
  param {
    lr_mult: 1
    decay_mult: 0
  }
  param {
    lr_mult: 0
    decay_mult: 0
  }
  param {
    lr_mult: 0
    decay_mult: 0
  }
  bn_param {
    scale_filler {
      type: "constant"
      value: 1
    }
    shift_filler {
      type: "constant"
      value: 0
    }
    decay: 0.05
    multigpu_sync: ALL
  }
}
layer {
  name: "res4b12_branch2b_relu"
  type: "ReLU"
  bottom: "res4b12_branch2b"
  top: "res4b12_branch2b"
}
layer {
  name: "res4b12_branch2c"
  type: "ConvolutionData"
  bottom: "res4b12_branch2b"
  top: "res4b12_branch2c"
  param {
    lr_mult: 1
    decay_mult: 1
  }
  convolution_param {
    num_output: 1024
    bias_term: false
    pad: 0
    kernel_size: 1
    stride: 1
    weight_filler {
      type: "msra"
    }
  }
}
layer {
  name: "res4b12_branch2c_bn"
  type: "BNData"
  bottom: "res4b12_branch2c"
  top: "res4b12_branch2c"
  param {
    lr_mult: 1
    decay_mult: 0
  }
  param {
    lr_mult: 1
    decay_mult: 0
  }
  param {
    lr_mult: 0
    decay_mult: 0
  }
  param {
    lr_mult: 0
    decay_mult: 0
  }
  bn_param {
    scale_filler {
      type: "constant"
      value: 0.1
    }
    shift_filler {
      type: "constant"
      value: 0
    }
    decay: 0.05
    multigpu_sync: ALL
  }
}
layer {
  name: "res4b12"
  type: "Eltwise"
  bottom: "res4b11"
  bottom: "res4b12_branch2c"
  top: "res4b12"
}
layer {
  name: "res4b12_relu"
  type: "ReLU"
  bottom: "res4b12"
  top: "res4b12"
}
layer {
  name: "res4b13_branch2a"
  type: "ConvolutionData"
  bottom: "res4b12"
  top: "res4b13_branch2a"
  param {
    lr_mult: 1
    decay_mult: 1
  }
  convolution_param {
    num_output: 256
    bias_term: false
    pad: 0
    kernel_size: 1
    stride: 1
    weight_filler {
      type: "msra"
    }
  }
}
layer {
  name: "res4b13_branch2a_bn"
  type: "BNData"
  bottom: "res4b13_branch2a"
  top: "res4b13_branch2a"
  param {
    lr_mult: 1
    decay_mult: 0
  }
  param {
    lr_mult: 1
    decay_mult: 0
  }
  param {
    lr_mult: 0
    decay_mult: 0
  }
  param {
    lr_mult: 0
    decay_mult: 0
  }
  bn_param {
    scale_filler {
      type: "constant"
      value: 1
    }
    shift_filler {
      type: "constant"
      value: 0
    }
    decay: 0.05
    multigpu_sync: ALL
  }
}
layer {
  name: "res4b13_branch2a_relu"
  type: "ReLU"
  bottom: "res4b13_branch2a"
  top: "res4b13_branch2a"
}
layer {
  name: "res4b13_branch2b"
  type: "ConvolutionData"
  bottom: "res4b13_branch2a"
  top: "res4b13_branch2b"
  param {
    lr_mult: 1
    decay_mult: 1
  }
  convolution_param {
    num_output: 256
    bias_term: false
    pad: 1
    kernel_size: 3
    stride: 1
    weight_filler {
      type: "msra"
    }
  }
}
layer {
  name: "res4b13_branch2b_bn"
  type: "BNData"
  bottom: "res4b13_branch2b"
  top: "res4b13_branch2b"
  param {
    lr_mult: 1
    decay_mult: 0
  }
  param {
    lr_mult: 1
    decay_mult: 0
  }
  param {
    lr_mult: 0
    decay_mult: 0
  }
  param {
    lr_mult: 0
    decay_mult: 0
  }
  bn_param {
    scale_filler {
      type: "constant"
      value: 1
    }
    shift_filler {
      type: "constant"
      value: 0
    }
    decay: 0.05
    multigpu_sync: ALL
  }
}
layer {
  name: "res4b13_branch2b_relu"
  type: "ReLU"
  bottom: "res4b13_branch2b"
  top: "res4b13_branch2b"
}
layer {
  name: "res4b13_branch2c"
  type: "ConvolutionData"
  bottom: "res4b13_branch2b"
  top: "res4b13_branch2c"
  param {
    lr_mult: 1
    decay_mult: 1
  }
  convolution_param {
    num_output: 1024
    bias_term: false
    pad: 0
    kernel_size: 1
    stride: 1
    weight_filler {
      type: "msra"
    }
  }
}
layer {
  name: "res4b13_branch2c_bn"
  type: "BNData"
  bottom: "res4b13_branch2c"
  top: "res4b13_branch2c"
  param {
    lr_mult: 1
    decay_mult: 0
  }
  param {
    lr_mult: 1
    decay_mult: 0
  }
  param {
    lr_mult: 0
    decay_mult: 0
  }
  param {
    lr_mult: 0
    decay_mult: 0
  }
  bn_param {
    scale_filler {
      type: "constant"
      value: 0.1
    }
    shift_filler {
      type: "constant"
      value: 0
    }
    decay: 0.05
    multigpu_sync: ALL
  }
}
layer {
  name: "res4b13"
  type: "Eltwise"
  bottom: "res4b12"
  bottom: "res4b13_branch2c"
  top: "res4b13"
}
layer {
  name: "res4b13_relu"
  type: "ReLU"
  bottom: "res4b13"
  top: "res4b13"
}
layer {
  name: "res4b14_branch2a"
  type: "ConvolutionData"
  bottom: "res4b13"
  top: "res4b14_branch2a"
  param {
    lr_mult: 1
    decay_mult: 1
  }
  convolution_param {
    num_output: 256
    bias_term: false
    pad: 0
    kernel_size: 1
    stride: 1
    weight_filler {
      type: "msra"
    }
  }
}
layer {
  name: "res4b14_branch2a_bn"
  type: "BNData"
  bottom: "res4b14_branch2a"
  top: "res4b14_branch2a"
  param {
    lr_mult: 1
    decay_mult: 0
  }
  param {
    lr_mult: 1
    decay_mult: 0
  }
  param {
    lr_mult: 0
    decay_mult: 0
  }
  param {
    lr_mult: 0
    decay_mult: 0
  }
  bn_param {
    scale_filler {
      type: "constant"
      value: 1
    }
    shift_filler {
      type: "constant"
      value: 0
    }
    decay: 0.05
    multigpu_sync: ALL
  }
}
layer {
  name: "res4b14_branch2a_relu"
  type: "ReLU"
  bottom: "res4b14_branch2a"
  top: "res4b14_branch2a"
}
layer {
  name: "res4b14_branch2b"
  type: "ConvolutionData"
  bottom: "res4b14_branch2a"
  top: "res4b14_branch2b"
  param {
    lr_mult: 1
    decay_mult: 1
  }
  convolution_param {
    num_output: 256
    bias_term: false
    pad: 1
    kernel_size: 3
    stride: 1
    weight_filler {
      type: "msra"
    }
  }
}
layer {
  name: "res4b14_branch2b_bn"
  type: "BNData"
  bottom: "res4b14_branch2b"
  top: "res4b14_branch2b"
  param {
    lr_mult: 1
    decay_mult: 0
  }
  param {
    lr_mult: 1
    decay_mult: 0
  }
  param {
    lr_mult: 0
    decay_mult: 0
  }
  param {
    lr_mult: 0
    decay_mult: 0
  }
  bn_param {
    scale_filler {
      type: "constant"
      value: 1
    }
    shift_filler {
      type: "constant"
      value: 0
    }
    decay: 0.05
    multigpu_sync: ALL
  }
}
layer {
  name: "res4b14_branch2b_relu"
  type: "ReLU"
  bottom: "res4b14_branch2b"
  top: "res4b14_branch2b"
}
layer {
  name: "res4b14_branch2c"
  type: "ConvolutionData"
  bottom: "res4b14_branch2b"
  top: "res4b14_branch2c"
  param {
    lr_mult: 1
    decay_mult: 1
  }
  convolution_param {
    num_output: 1024
    bias_term: false
    pad: 0
    kernel_size: 1
    stride: 1
    weight_filler {
      type: "msra"
    }
  }
}
layer {
  name: "res4b14_branch2c_bn"
  type: "BNData"
  bottom: "res4b14_branch2c"
  top: "res4b14_branch2c"
  param {
    lr_mult: 1
    decay_mult: 0
  }
  param {
    lr_mult: 1
    decay_mult: 0
  }
  param {
    lr_mult: 0
    decay_mult: 0
  }
  param {
    lr_mult: 0
    decay_mult: 0
  }
  bn_param {
    scale_filler {
      type: "constant"
      value: 0.1
    }
    shift_filler {
      type: "constant"
      value: 0
    }
    decay: 0.05
    multigpu_sync: ALL
  }
}
layer {
  name: "res4b14"
  type: "Eltwise"
  bottom: "res4b13"
  bottom: "res4b14_branch2c"
  top: "res4b14"
}
layer {
  name: "res4b14_relu"
  type: "ReLU"
  bottom: "res4b14"
  top: "res4b14"
}
layer {
  name: "res4b15_branch2a"
  type: "ConvolutionData"
  bottom: "res4b14"
  top: "res4b15_branch2a"
  param {
    lr_mult: 1
    decay_mult: 1
  }
  convolution_param {
    num_output: 256
    bias_term: false
    pad: 0
    kernel_size: 1
    stride: 1
    weight_filler {
      type: "msra"
    }
  }
}
layer {
  name: "res4b15_branch2a_bn"
  type: "BNData"
  bottom: "res4b15_branch2a"
  top: "res4b15_branch2a"
  param {
    lr_mult: 1
    decay_mult: 0
  }
  param {
    lr_mult: 1
    decay_mult: 0
  }
  param {
    lr_mult: 0
    decay_mult: 0
  }
  param {
    lr_mult: 0
    decay_mult: 0
  }
  bn_param {
    scale_filler {
      type: "constant"
      value: 1
    }
    shift_filler {
      type: "constant"
      value: 0
    }
    decay: 0.05
    multigpu_sync: ALL
  }
}
layer {
  name: "res4b15_branch2a_relu"
  type: "ReLU"
  bottom: "res4b15_branch2a"
  top: "res4b15_branch2a"
}
layer {
  name: "res4b15_branch2b"
  type: "ConvolutionData"
  bottom: "res4b15_branch2a"
  top: "res4b15_branch2b"
  param {
    lr_mult: 1
    decay_mult: 1
  }
  convolution_param {
    num_output: 256
    bias_term: false
    pad: 1
    kernel_size: 3
    stride: 1
    weight_filler {
      type: "msra"
    }
  }
}
layer {
  name: "res4b15_branch2b_bn"
  type: "BNData"
  bottom: "res4b15_branch2b"
  top: "res4b15_branch2b"
  param {
    lr_mult: 1
    decay_mult: 0
  }
  param {
    lr_mult: 1
    decay_mult: 0
  }
  param {
    lr_mult: 0
    decay_mult: 0
  }
  param {
    lr_mult: 0
    decay_mult: 0
  }
  bn_param {
    scale_filler {
      type: "constant"
      value: 1
    }
    shift_filler {
      type: "constant"
      value: 0
    }
    decay: 0.05
    multigpu_sync: ALL
  }
}
layer {
  name: "res4b15_branch2b_relu"
  type: "ReLU"
  bottom: "res4b15_branch2b"
  top: "res4b15_branch2b"
}
layer {
  name: "res4b15_branch2c"
  type: "ConvolutionData"
  bottom: "res4b15_branch2b"
  top: "res4b15_branch2c"
  param {
    lr_mult: 1
    decay_mult: 1
  }
  convolution_param {
    num_output: 1024
    bias_term: false
    pad: 0
    kernel_size: 1
    stride: 1
    weight_filler {
      type: "msra"
    }
  }
}
layer {
  name: "res4b15_branch2c_bn"
  type: "BNData"
  bottom: "res4b15_branch2c"
  top: "res4b15_branch2c"
  param {
    lr_mult: 1
    decay_mult: 0
  }
  param {
    lr_mult: 1
    decay_mult: 0
  }
  param {
    lr_mult: 0
    decay_mult: 0
  }
  param {
    lr_mult: 0
    decay_mult: 0
  }
  bn_param {
    scale_filler {
      type: "constant"
      value: 0.1
    }
    shift_filler {
      type: "constant"
      value: 0
    }
    decay: 0.05
    multigpu_sync: ALL
  }
}
layer {
  name: "res4b15"
  type: "Eltwise"
  bottom: "res4b14"
  bottom: "res4b15_branch2c"
  top: "res4b15"
}
layer {
  name: "res4b15_relu"
  type: "ReLU"
  bottom: "res4b15"
  top: "res4b15"
}
layer {
  name: "res4b16_branch2a"
  type: "ConvolutionData"
  bottom: "res4b15"
  top: "res4b16_branch2a"
  param {
    lr_mult: 1
    decay_mult: 1
  }
  convolution_param {
    num_output: 256
    bias_term: false
    pad: 0
    kernel_size: 1
    stride: 1
    weight_filler {
      type: "msra"
    }
  }
}
layer {
  name: "res4b16_branch2a_bn"
  type: "BNData"
  bottom: "res4b16_branch2a"
  top: "res4b16_branch2a"
  param {
    lr_mult: 1
    decay_mult: 0
  }
  param {
    lr_mult: 1
    decay_mult: 0
  }
  param {
    lr_mult: 0
    decay_mult: 0
  }
  param {
    lr_mult: 0
    decay_mult: 0
  }
  bn_param {
    scale_filler {
      type: "constant"
      value: 1
    }
    shift_filler {
      type: "constant"
      value: 0
    }
    decay: 0.05
    multigpu_sync: ALL
  }
}
layer {
  name: "res4b16_branch2a_relu"
  type: "ReLU"
  bottom: "res4b16_branch2a"
  top: "res4b16_branch2a"
}
layer {
  name: "res4b16_branch2b"
  type: "ConvolutionData"
  bottom: "res4b16_branch2a"
  top: "res4b16_branch2b"
  param {
    lr_mult: 1
    decay_mult: 1
  }
  convolution_param {
    num_output: 256
    bias_term: false
    pad: 1
    kernel_size: 3
    stride: 1
    weight_filler {
      type: "msra"
    }
  }
}
layer {
  name: "res4b16_branch2b_bn"
  type: "BNData"
  bottom: "res4b16_branch2b"
  top: "res4b16_branch2b"
  param {
    lr_mult: 1
    decay_mult: 0
  }
  param {
    lr_mult: 1
    decay_mult: 0
  }
  param {
    lr_mult: 0
    decay_mult: 0
  }
  param {
    lr_mult: 0
    decay_mult: 0
  }
  bn_param {
    scale_filler {
      type: "constant"
      value: 1
    }
    shift_filler {
      type: "constant"
      value: 0
    }
    decay: 0.05
    multigpu_sync: ALL
  }
}
layer {
  name: "res4b16_branch2b_relu"
  type: "ReLU"
  bottom: "res4b16_branch2b"
  top: "res4b16_branch2b"
}
layer {
  name: "res4b16_branch2c"
  type: "ConvolutionData"
  bottom: "res4b16_branch2b"
  top: "res4b16_branch2c"
  param {
    lr_mult: 1
    decay_mult: 1
  }
  convolution_param {
    num_output: 1024
    bias_term: false
    pad: 0
    kernel_size: 1
    stride: 1
    weight_filler {
      type: "msra"
    }
  }
}
layer {
  name: "res4b16_branch2c_bn"
  type: "BNData"
  bottom: "res4b16_branch2c"
  top: "res4b16_branch2c"
  param {
    lr_mult: 1
    decay_mult: 0
  }
  param {
    lr_mult: 1
    decay_mult: 0
  }
  param {
    lr_mult: 0
    decay_mult: 0
  }
  param {
    lr_mult: 0
    decay_mult: 0
  }
  bn_param {
    scale_filler {
      type: "constant"
      value: 0.1
    }
    shift_filler {
      type: "constant"
      value: 0
    }
    decay: 0.05
    multigpu_sync: ALL
  }
}
layer {
  name: "res4b16"
  type: "Eltwise"
  bottom: "res4b15"
  bottom: "res4b16_branch2c"
  top: "res4b16"
}
layer {
  name: "res4b16_relu"
  type: "ReLU"
  bottom: "res4b16"
  top: "res4b16"
}
layer {
  name: "res4b17_branch2a"
  type: "ConvolutionData"
  bottom: "res4b16"
  top: "res4b17_branch2a"
  param {
    lr_mult: 1
    decay_mult: 1
  }
  convolution_param {
    num_output: 256
    bias_term: false
    pad: 0
    kernel_size: 1
    stride: 1
    weight_filler {
      type: "msra"
    }
  }
}
layer {
  name: "res4b17_branch2a_bn"
  type: "BNData"
  bottom: "res4b17_branch2a"
  top: "res4b17_branch2a"
  param {
    lr_mult: 1
    decay_mult: 0
  }
  param {
    lr_mult: 1
    decay_mult: 0
  }
  param {
    lr_mult: 0
    decay_mult: 0
  }
  param {
    lr_mult: 0
    decay_mult: 0
  }
  bn_param {
    scale_filler {
      type: "constant"
      value: 1
    }
    shift_filler {
      type: "constant"
      value: 0
    }
    decay: 0.05
    multigpu_sync: ALL
  }
}
layer {
  name: "res4b17_branch2a_relu"
  type: "ReLU"
  bottom: "res4b17_branch2a"
  top: "res4b17_branch2a"
}
layer {
  name: "res4b17_branch2b"
  type: "ConvolutionData"
  bottom: "res4b17_branch2a"
  top: "res4b17_branch2b"
  param {
    lr_mult: 1
    decay_mult: 1
  }
  convolution_param {
    num_output: 256
    bias_term: false
    pad: 1
    kernel_size: 3
    stride: 1
    weight_filler {
      type: "msra"
    }
  }
}
layer {
  name: "res4b17_branch2b_bn"
  type: "BNData"
  bottom: "res4b17_branch2b"
  top: "res4b17_branch2b"
  param {
    lr_mult: 1
    decay_mult: 0
  }
  param {
    lr_mult: 1
    decay_mult: 0
  }
  param {
    lr_mult: 0
    decay_mult: 0
  }
  param {
    lr_mult: 0
    decay_mult: 0
  }
  bn_param {
    scale_filler {
      type: "constant"
      value: 1
    }
    shift_filler {
      type: "constant"
      value: 0
    }
    decay: 0.05
    multigpu_sync: ALL
  }
}
layer {
  name: "res4b17_branch2b_relu"
  type: "ReLU"
  bottom: "res4b17_branch2b"
  top: "res4b17_branch2b"
}
layer {
  name: "res4b17_branch2c"
  type: "ConvolutionData"
  bottom: "res4b17_branch2b"
  top: "res4b17_branch2c"
  param {
    lr_mult: 1
    decay_mult: 1
  }
  convolution_param {
    num_output: 1024
    bias_term: false
    pad: 0
    kernel_size: 1
    stride: 1
    weight_filler {
      type: "msra"
    }
  }
}
layer {
  name: "res4b17_branch2c_bn"
  type: "BNData"
  bottom: "res4b17_branch2c"
  top: "res4b17_branch2c"
  param {
    lr_mult: 1
    decay_mult: 0
  }
  param {
    lr_mult: 1
    decay_mult: 0
  }
  param {
    lr_mult: 0
    decay_mult: 0
  }
  param {
    lr_mult: 0
    decay_mult: 0
  }
  bn_param {
    scale_filler {
      type: "constant"
      value: 0.1
    }
    shift_filler {
      type: "constant"
      value: 0
    }
    decay: 0.05
    multigpu_sync: ALL
  }
}
layer {
  name: "res4b17"
  type: "Eltwise"
  bottom: "res4b16"
  bottom: "res4b17_branch2c"
  top: "res4b17"
}
layer {
  name: "res4b17_relu"
  type: "ReLU"
  bottom: "res4b17"
  top: "res4b17"
}
layer {
  name: "res4b18_branch2a"
  type: "ConvolutionData"
  bottom: "res4b17"
  top: "res4b18_branch2a"
  param {
    lr_mult: 1
    decay_mult: 1
  }
  convolution_param {
    num_output: 256
    bias_term: false
    pad: 0
    kernel_size: 1
    stride: 1
    weight_filler {
      type: "msra"
    }
  }
}
layer {
  name: "res4b18_branch2a_bn"
  type: "BNData"
  bottom: "res4b18_branch2a"
  top: "res4b18_branch2a"
  param {
    lr_mult: 1
    decay_mult: 0
  }
  param {
    lr_mult: 1
    decay_mult: 0
  }
  param {
    lr_mult: 0
    decay_mult: 0
  }
  param {
    lr_mult: 0
    decay_mult: 0
  }
  bn_param {
    scale_filler {
      type: "constant"
      value: 1
    }
    shift_filler {
      type: "constant"
      value: 0
    }
    decay: 0.05
    multigpu_sync: ALL
  }
}
layer {
  name: "res4b18_branch2a_relu"
  type: "ReLU"
  bottom: "res4b18_branch2a"
  top: "res4b18_branch2a"
}
layer {
  name: "res4b18_branch2b"
  type: "ConvolutionData"
  bottom: "res4b18_branch2a"
  top: "res4b18_branch2b"
  param {
    lr_mult: 1
    decay_mult: 1
  }
  convolution_param {
    num_output: 256
    bias_term: false
    pad: 1
    kernel_size: 3
    stride: 1
    weight_filler {
      type: "msra"
    }
  }
}
layer {
  name: "res4b18_branch2b_bn"
  type: "BNData"
  bottom: "res4b18_branch2b"
  top: "res4b18_branch2b"
  param {
    lr_mult: 1
    decay_mult: 0
  }
  param {
    lr_mult: 1
    decay_mult: 0
  }
  param {
    lr_mult: 0
    decay_mult: 0
  }
  param {
    lr_mult: 0
    decay_mult: 0
  }
  bn_param {
    scale_filler {
      type: "constant"
      value: 1
    }
    shift_filler {
      type: "constant"
      value: 0
    }
    decay: 0.05
    multigpu_sync: ALL
  }
}
layer {
  name: "res4b18_branch2b_relu"
  type: "ReLU"
  bottom: "res4b18_branch2b"
  top: "res4b18_branch2b"
}
layer {
  name: "res4b18_branch2c"
  type: "ConvolutionData"
  bottom: "res4b18_branch2b"
  top: "res4b18_branch2c"
  param {
    lr_mult: 1
    decay_mult: 1
  }
  convolution_param {
    num_output: 1024
    bias_term: false
    pad: 0
    kernel_size: 1
    stride: 1
    weight_filler {
      type: "msra"
    }
  }
}
layer {
  name: "res4b18_branch2c_bn"
  type: "BNData"
  bottom: "res4b18_branch2c"
  top: "res4b18_branch2c"
  param {
    lr_mult: 1
    decay_mult: 0
  }
  param {
    lr_mult: 1
    decay_mult: 0
  }
  param {
    lr_mult: 0
    decay_mult: 0
  }
  param {
    lr_mult: 0
    decay_mult: 0
  }
  bn_param {
    scale_filler {
      type: "constant"
      value: 0.1
    }
    shift_filler {
      type: "constant"
      value: 0
    }
    decay: 0.05
    multigpu_sync: ALL
  }
}
layer {
  name: "res4b18"
  type: "Eltwise"
  bottom: "res4b17"
  bottom: "res4b18_branch2c"
  top: "res4b18"
}
layer {
  name: "res4b18_relu"
  type: "ReLU"
  bottom: "res4b18"
  top: "res4b18"
}
layer {
  name: "res4b19_branch2a"
  type: "ConvolutionData"
  bottom: "res4b18"
  top: "res4b19_branch2a"
  param {
    lr_mult: 1
    decay_mult: 1
  }
  convolution_param {
    num_output: 256
    bias_term: false
    pad: 0
    kernel_size: 1
    stride: 1
    weight_filler {
      type: "msra"
    }
  }
}
layer {
  name: "res4b19_branch2a_bn"
  type: "BNData"
  bottom: "res4b19_branch2a"
  top: "res4b19_branch2a"
  param {
    lr_mult: 1
    decay_mult: 0
  }
  param {
    lr_mult: 1
    decay_mult: 0
  }
  param {
    lr_mult: 0
    decay_mult: 0
  }
  param {
    lr_mult: 0
    decay_mult: 0
  }
  bn_param {
    scale_filler {
      type: "constant"
      value: 1
    }
    shift_filler {
      type: "constant"
      value: 0
    }
    decay: 0.05
    multigpu_sync: ALL
  }
}
layer {
  name: "res4b19_branch2a_relu"
  type: "ReLU"
  bottom: "res4b19_branch2a"
  top: "res4b19_branch2a"
}
layer {
  name: "res4b19_branch2b"
  type: "ConvolutionData"
  bottom: "res4b19_branch2a"
  top: "res4b19_branch2b"
  param {
    lr_mult: 1
    decay_mult: 1
  }
  convolution_param {
    num_output: 256
    bias_term: false
    pad: 1
    kernel_size: 3
    stride: 1
    weight_filler {
      type: "msra"
    }
  }
}
layer {
  name: "res4b19_branch2b_bn"
  type: "BNData"
  bottom: "res4b19_branch2b"
  top: "res4b19_branch2b"
  param {
    lr_mult: 1
    decay_mult: 0
  }
  param {
    lr_mult: 1
    decay_mult: 0
  }
  param {
    lr_mult: 0
    decay_mult: 0
  }
  param {
    lr_mult: 0
    decay_mult: 0
  }
  bn_param {
    scale_filler {
      type: "constant"
      value: 1
    }
    shift_filler {
      type: "constant"
      value: 0
    }
    decay: 0.05
    multigpu_sync: ALL
  }
}
layer {
  name: "res4b19_branch2b_relu"
  type: "ReLU"
  bottom: "res4b19_branch2b"
  top: "res4b19_branch2b"
}
layer {
  name: "res4b19_branch2c"
  type: "ConvolutionData"
  bottom: "res4b19_branch2b"
  top: "res4b19_branch2c"
  param {
    lr_mult: 1
    decay_mult: 1
  }
  convolution_param {
    num_output: 1024
    bias_term: false
    pad: 0
    kernel_size: 1
    stride: 1
    weight_filler {
      type: "msra"
    }
  }
}
layer {
  name: "res4b19_branch2c_bn"
  type: "BNData"
  bottom: "res4b19_branch2c"
  top: "res4b19_branch2c"
  param {
    lr_mult: 1
    decay_mult: 0
  }
  param {
    lr_mult: 1
    decay_mult: 0
  }
  param {
    lr_mult: 0
    decay_mult: 0
  }
  param {
    lr_mult: 0
    decay_mult: 0
  }
  bn_param {
    scale_filler {
      type: "constant"
      value: 0.1
    }
    shift_filler {
      type: "constant"
      value: 0
    }
    decay: 0.05
    multigpu_sync: ALL
  }
}
layer {
  name: "res4b19"
  type: "Eltwise"
  bottom: "res4b18"
  bottom: "res4b19_branch2c"
  top: "res4b19"
}
layer {
  name: "res4b19_relu"
  type: "ReLU"
  bottom: "res4b19"
  top: "res4b19"
}
layer {
  name: "res4b20_branch2a"
  type: "ConvolutionData"
  bottom: "res4b19"
  top: "res4b20_branch2a"
  param {
    lr_mult: 1
    decay_mult: 1
  }
  convolution_param {
    num_output: 256
    bias_term: false
    pad: 0
    kernel_size: 1
    stride: 1
    weight_filler {
      type: "msra"
    }
  }
}
layer {
  name: "res4b20_branch2a_bn"
  type: "BNData"
  bottom: "res4b20_branch2a"
  top: "res4b20_branch2a"
  param {
    lr_mult: 1
    decay_mult: 0
  }
  param {
    lr_mult: 1
    decay_mult: 0
  }
  param {
    lr_mult: 0
    decay_mult: 0
  }
  param {
    lr_mult: 0
    decay_mult: 0
  }
  bn_param {
    scale_filler {
      type: "constant"
      value: 1
    }
    shift_filler {
      type: "constant"
      value: 0
    }
    decay: 0.05
    multigpu_sync: ALL
  }
}
layer {
  name: "res4b20_branch2a_relu"
  type: "ReLU"
  bottom: "res4b20_branch2a"
  top: "res4b20_branch2a"
}
layer {
  name: "res4b20_branch2b"
  type: "ConvolutionData"
  bottom: "res4b20_branch2a"
  top: "res4b20_branch2b"
  param {
    lr_mult: 1
    decay_mult: 1
  }
  convolution_param {
    num_output: 256
    bias_term: false
    pad: 1
    kernel_size: 3
    stride: 1
    weight_filler {
      type: "msra"
    }
  }
}
layer {
  name: "res4b20_branch2b_bn"
  type: "BNData"
  bottom: "res4b20_branch2b"
  top: "res4b20_branch2b"
  param {
    lr_mult: 1
    decay_mult: 0
  }
  param {
    lr_mult: 1
    decay_mult: 0
  }
  param {
    lr_mult: 0
    decay_mult: 0
  }
  param {
    lr_mult: 0
    decay_mult: 0
  }
  bn_param {
    scale_filler {
      type: "constant"
      value: 1
    }
    shift_filler {
      type: "constant"
      value: 0
    }
    decay: 0.05
    multigpu_sync: ALL
  }
}
layer {
  name: "res4b20_branch2b_relu"
  type: "ReLU"
  bottom: "res4b20_branch2b"
  top: "res4b20_branch2b"
}
layer {
  name: "res4b20_branch2c"
  type: "ConvolutionData"
  bottom: "res4b20_branch2b"
  top: "res4b20_branch2c"
  param {
    lr_mult: 1
    decay_mult: 1
  }
  convolution_param {
    num_output: 1024
    bias_term: false
    pad: 0
    kernel_size: 1
    stride: 1
    weight_filler {
      type: "msra"
    }
  }
}
layer {
  name: "res4b20_branch2c_bn"
  type: "BNData"
  bottom: "res4b20_branch2c"
  top: "res4b20_branch2c"
  param {
    lr_mult: 1
    decay_mult: 0
  }
  param {
    lr_mult: 1
    decay_mult: 0
  }
  param {
    lr_mult: 0
    decay_mult: 0
  }
  param {
    lr_mult: 0
    decay_mult: 0
  }
  bn_param {
    scale_filler {
      type: "constant"
      value: 0.1
    }
    shift_filler {
      type: "constant"
      value: 0
    }
    decay: 0.05
    multigpu_sync: ALL
  }
}
layer {
  name: "res4b20"
  type: "Eltwise"
  bottom: "res4b19"
  bottom: "res4b20_branch2c"
  top: "res4b20"
}
layer {
  name: "res4b20_relu"
  type: "ReLU"
  bottom: "res4b20"
  top: "res4b20"
}
layer {
  name: "res4b21_branch2a"
  type: "ConvolutionData"
  bottom: "res4b20"
  top: "res4b21_branch2a"
  param {
    lr_mult: 1
    decay_mult: 1
  }
  convolution_param {
    num_output: 256
    bias_term: false
    pad: 0
    kernel_size: 1
    stride: 1
    weight_filler {
      type: "msra"
    }
  }
}
layer {
  name: "res4b21_branch2a_bn"
  type: "BNData"
  bottom: "res4b21_branch2a"
  top: "res4b21_branch2a"
  param {
    lr_mult: 1
    decay_mult: 0
  }
  param {
    lr_mult: 1
    decay_mult: 0
  }
  param {
    lr_mult: 0
    decay_mult: 0
  }
  param {
    lr_mult: 0
    decay_mult: 0
  }
  bn_param {
    scale_filler {
      type: "constant"
      value: 1
    }
    shift_filler {
      type: "constant"
      value: 0
    }
    decay: 0.05
    multigpu_sync: ALL
  }
}
layer {
  name: "res4b21_branch2a_relu"
  type: "ReLU"
  bottom: "res4b21_branch2a"
  top: "res4b21_branch2a"
}
layer {
  name: "res4b21_branch2b"
  type: "ConvolutionData"
  bottom: "res4b21_branch2a"
  top: "res4b21_branch2b"
  param {
    lr_mult: 1
    decay_mult: 1
  }
  convolution_param {
    num_output: 256
    bias_term: false
    pad: 1
    kernel_size: 3
    stride: 1
    weight_filler {
      type: "msra"
    }
  }
}
layer {
  name: "res4b21_branch2b_bn"
  type: "BNData"
  bottom: "res4b21_branch2b"
  top: "res4b21_branch2b"
  param {
    lr_mult: 1
    decay_mult: 0
  }
  param {
    lr_mult: 1
    decay_mult: 0
  }
  param {
    lr_mult: 0
    decay_mult: 0
  }
  param {
    lr_mult: 0
    decay_mult: 0
  }
  bn_param {
    scale_filler {
      type: "constant"
      value: 1
    }
    shift_filler {
      type: "constant"
      value: 0
    }
    decay: 0.05
    multigpu_sync: ALL
  }
}
layer {
  name: "res4b21_branch2b_relu"
  type: "ReLU"
  bottom: "res4b21_branch2b"
  top: "res4b21_branch2b"
}
layer {
  name: "res4b21_branch2c"
  type: "ConvolutionData"
  bottom: "res4b21_branch2b"
  top: "res4b21_branch2c"
  param {
    lr_mult: 1
    decay_mult: 1
  }
  convolution_param {
    num_output: 1024
    bias_term: false
    pad: 0
    kernel_size: 1
    stride: 1
    weight_filler {
      type: "msra"
    }
  }
}
layer {
  name: "res4b21_branch2c_bn"
  type: "BNData"
  bottom: "res4b21_branch2c"
  top: "res4b21_branch2c"
  param {
    lr_mult: 1
    decay_mult: 0
  }
  param {
    lr_mult: 1
    decay_mult: 0
  }
  param {
    lr_mult: 0
    decay_mult: 0
  }
  param {
    lr_mult: 0
    decay_mult: 0
  }
  bn_param {
    scale_filler {
      type: "constant"
      value: 0.1
    }
    shift_filler {
      type: "constant"
      value: 0
    }
    decay: 0.05
    multigpu_sync: ALL
  }
}
layer {
  name: "res4b21"
  type: "Eltwise"
  bottom: "res4b20"
  bottom: "res4b21_branch2c"
  top: "res4b21"
}
layer {
  name: "res4b21_relu"
  type: "ReLU"
  bottom: "res4b21"
  top: "res4b21"
}
layer {
  name: "res4b22_branch2a"
  type: "ConvolutionData"
  bottom: "res4b21"
  top: "res4b22_branch2a"
  param {
    lr_mult: 1
    decay_mult: 1
  }
  convolution_param {
    num_output: 256
    bias_term: false
    pad: 0
    kernel_size: 1
    stride: 1
    weight_filler {
      type: "msra"
    }
  }
}
layer {
  name: "res4b22_branch2a_bn"
  type: "BNData"
  bottom: "res4b22_branch2a"
  top: "res4b22_branch2a"
  param {
    lr_mult: 1
    decay_mult: 0
  }
  param {
    lr_mult: 1
    decay_mult: 0
  }
  param {
    lr_mult: 0
    decay_mult: 0
  }
  param {
    lr_mult: 0
    decay_mult: 0
  }
  bn_param {
    scale_filler {
      type: "constant"
      value: 1
    }
    shift_filler {
      type: "constant"
      value: 0
    }
    decay: 0.05
    multigpu_sync: ALL
  }
}
layer {
  name: "res4b22_branch2a_relu"
  type: "ReLU"
  bottom: "res4b22_branch2a"
  top: "res4b22_branch2a"
}
layer {
  name: "res4b22_branch2b"
  type: "ConvolutionData"
  bottom: "res4b22_branch2a"
  top: "res4b22_branch2b"
  param {
    lr_mult: 1
    decay_mult: 1
  }
  convolution_param {
    num_output: 256
    bias_term: false
    pad: 1
    kernel_size: 3
    stride: 1
    weight_filler {
      type: "msra"
    }
  }
}
layer {
  name: "res4b22_branch2b_bn"
  type: "BNData"
  bottom: "res4b22_branch2b"
  top: "res4b22_branch2b"
  param {
    lr_mult: 1
    decay_mult: 0
  }
  param {
    lr_mult: 1
    decay_mult: 0
  }
  param {
    lr_mult: 0
    decay_mult: 0
  }
  param {
    lr_mult: 0
    decay_mult: 0
  }
  bn_param {
    scale_filler {
      type: "constant"
      value: 1
    }
    shift_filler {
      type: "constant"
      value: 0
    }
    decay: 0.05
    multigpu_sync: ALL
  }
}
layer {
  name: "res4b22_branch2b_relu"
  type: "ReLU"
  bottom: "res4b22_branch2b"
  top: "res4b22_branch2b"
}
layer {
  name: "res4b22_branch2c"
  type: "ConvolutionData"
  bottom: "res4b22_branch2b"
  top: "res4b22_branch2c"
  param {
    lr_mult: 1
    decay_mult: 1
  }
  convolution_param {
    num_output: 1024
    bias_term: false
    pad: 0
    kernel_size: 1
    stride: 1
    weight_filler {
      type: "msra"
    }
  }
}
layer {
  name: "res4b22_branch2c_bn"
  type: "BNData"
  bottom: "res4b22_branch2c"
  top: "res4b22_branch2c"
  param {
    lr_mult: 1
    decay_mult: 0
  }
  param {
    lr_mult: 1
    decay_mult: 0
  }
  param {
    lr_mult: 0
    decay_mult: 0
  }
  param {
    lr_mult: 0
    decay_mult: 0
  }
  bn_param {
    scale_filler {
      type: "constant"
      value: 0.1
    }
    shift_filler {
      type: "constant"
      value: 0
    }
    decay: 0.05
    multigpu_sync: ALL
  }
}
layer {
  name: "res4b22"
  type: "Eltwise"
  bottom: "res4b21"
  bottom: "res4b22_branch2c"
  top: "res4b22"
}
layer {
  name: "res4b22_relu"
  type: "ReLU"
  bottom: "res4b22"
  top: "res4b22"
}
############################ RPN ############################
layer {
  name: "rpn_feat"
  type: "ConvolutionData"
  bottom: "res4b22"
  top: "rpn_feat"
  param {
    lr_mult: 1
    decay_mult: 1
  }
  convolution_param {
    num_output: 192
    bias_term: false
    pad: 1
    kernel_size: 3
    stride: 1
    weight_filler {
      type: "gaussian"
      std: 0.01
    }
  }
}
layer {
  name: "rpn_feat_bn"
  type: "BNData"
  bottom: "rpn_feat"
  top: "rpn_feat"
  param {
    lr_mult: 1
    decay_mult: 0
  }
  param {
    lr_mult: 1
    decay_mult: 0
  }
  param {
    lr_mult: 0
    decay_mult: 0
  }
  param {
    lr_mult: 0
    decay_mult: 0
  }
  bn_param {
    scale_filler {
      type: "constant"
      value: 1
    }
    shift_filler {
      type: "constant"
      value: 0
    }
    decay: 0.1
    multigpu_sync: ALL
  }
}
layer {
  name: "rpn_feat_relu"
  type: "ReLU"
  bottom: "rpn_feat"
  top: "rpn_feat"
}
layer {
  name: "rpn_cls_score"
  type: "ConvolutionData"
  bottom: "rpn_feat"
  top: "rpn_cls_score"
  param {
    lr_mult: 1
    decay_mult: 1
  }
  param {
    lr_mult: 2
    decay_mult: 0
  }
  convolution_param {
    num_output: 48
    pad: 1
    kernel_size: 3
    stride: 1
    weight_filler {
      type: "gaussian"
      std: 0.01
    }
    bias_filler {
      type: "constant"
      value: 0.1
    }
  }
}
layer {
  name: "rpn_bbox_pred"
  type: "ConvolutionData"
  bottom: "rpn_feat"
  top: "rpn_bbox_pred"
  param {
    lr_mult: 1
    decay_mult: 1
  }
  param {
    lr_mult: 2
    decay_mult: 0
  }
  convolution_param {
    num_output: 96
    pad: 1
    kernel_size: 3
    stride: 1
    weight_filler {
      type: "gaussian"
      std: 0.01
    }
    bias_filler {
      type: "constant"
      value: 0.1
    }
  }
}
layer {
  name: "rpn_cls_score_reshape"
  type: "Reshape"
  bottom: "rpn_cls_score"
  top: "rpn_cls_score_reshape"
  reshape_param {
    shape {
      dim: 0
      dim: 2
      dim: -1
      dim: 0
    }
  }
}
layer {
  name: "rpn_cls_prob"
  type: "Softmax"
  bottom: "rpn_cls_score_reshape"
  top: "rpn_cls_prob"
}
layer {
  name: "rpn_cls_prob_reshape"
  type: "Reshape"
  bottom: "rpn_cls_prob"
  top: "rpn_cls_prob_reshape"
  reshape_param {
    shape {
      dim: 0
      dim: 48
      dim: -1
      dim: 0
    }
  }
}
layer {
  name: "proposal"
  type: "RpnProposal"
  bottom: "rpn_cls_prob_reshape"
  bottom: "rpn_bbox_pred"
  bottom: "im_info"
  top: "rois"
  top: "anchors_id"
  top: "rois_score"
  propagate_down: false
  propagate_down: false
  propagate_down: false
  rpn_proposal_param {
    feat_stride: 16
  }
}
############################ FRCNN ############################
layer {
  name: "cls_bbox_feat"
  type: "ConvolutionData"
  bottom: "res4b22"
  top: "cls_bbox_feat"
  param {
    lr_mult: 1
    decay_mult: 1
  }
  convolution_param {
    num_output: 192
    bias_term: false
    pad: 1
    kernel_size: 3
    stride: 1
    weight_filler {
      type: "gaussian"
      std: 0.01
    }
  }
}
layer {
  name: "cls_bbox_feat_bn"
  type: "BNData"
  bottom: "cls_bbox_feat"
  top: "cls_bbox_feat"
  param {
    lr_mult: 1
    decay_mult: 0
  }
  param {
    lr_mult: 1
    decay_mult: 0
  }
  param {
    lr_mult: 0
    decay_mult: 0
  }
  param {
    lr_mult: 0
    decay_mult: 0
  }
  bn_param {
    scale_filler {
      type: "constant"
      value: 1
    }
    shift_filler {
      type: "constant"
      value: 0
    }
    decay: 0.1
    multigpu_sync: ALL
  }
}
layer {
  name: "cls_bbox_feat_relu"
  type: "ReLU"
  bottom: "cls_bbox_feat"
  top: "cls_bbox_feat"
}
layer {
  name: "cls_feat"
  type: "ConvolutionData"
  bottom: "cls_bbox_feat"
  top: "cls_feat"
  param {
    lr_mult: 1
    decay_mult: 1
  }
  param {
    lr_mult: 2
    decay_mult: 0
  }
  convolution_param {
    num_output: 98
    pad: 1
    kernel_size: 3
    stride: 1
    weight_filler {
      type: "gaussian"
      std: 0.01
    }
    bias_filler {
      type: "constant"
      value: 0.1
    }
  }
}
layer {
  name: "cls_vote"
  type: "PSROIMaskPooling"
  bottom: "cls_feat"
  bottom: "rois"
  top: "cls_vote"
  psroi_mask_pooling_param {
    spatial_scale: 0.0625
    output_dim: 2
    group_size: 7
    roi_scale: 1.5
  }
}
layer {
  name: "cls_score"
  type: "Pooling"
  bottom: "cls_vote"
  top: "cls_score"
  pooling_param {
    pool: AVE
    kernel_size: 7
  }
}
layer {
  name: "bbox_feat"
  type: "ConvolutionData"
  bottom: "cls_bbox_feat"
  top: "bbox_feat"
  param {
    lr_mult: 1
    decay_mult: 1
  }
  param {
    lr_mult: 2
    decay_mult: 0
  }
  convolution_param {
    num_output: 196
    pad: 1
    kernel_size: 3
    stride: 1
    weight_filler {
      type: "gaussian"
      std: 0.01
    }
    bias_filler {
      type: "constant"
      value: 0.1
    }
  }
}
layer {
  name: "bbox_vote"
  type: "PSROIMaskPooling"
  bottom: "bbox_feat"
  bottom: "rois"
  top: "bbox_vote"
  psroi_mask_pooling_param {
    spatial_scale: 0.0625
    output_dim: 4
    group_size: 7
    roi_scale: 1.5
  }
}
layer {
  name: "bbox_pred"
  type: "Pooling"
  bottom: "bbox_vote"
  top: "bbox_pred"
  pooling_param {
    pool: AVE
    kernel_size: 7
  }
}
layer {
  name: "cls_prob"
  type: "Softmax"
  bottom: "cls_score"
  top: "cls_prob"
}
